velocity_residuals/azimuthal_velocity_residuals_dmtau_dbell_b0p30/azimuthal_velocity_residuals_dmtau_dbell_b0p30_gridded.npy (npy, 111152 bytes, 1 tensors)

array f8 [54, 257]
000000 31 eb c5 50 4e b4 b3 bf ef 9d 58 7b 41 04 b2 bf
       -0.07697 -0.0703774381769262
000010 fb b2 fb fd 6d 08 b1 bf 02 c8 9e 80 9a 0c b0 bf
       -0.0665348763538524 -0.06269231453077853
000020 1d ba 83 06 8e 21 ae bf 35 e4 c9 0b e7 29 ac bf
       -0.05884975270770474 -0.05500719088463094
000030 65 bc 40 aa 08 f0 aa bf b5 9e c3 5f 9d c9 a9 bf
       -0.0526125629261223 -0.050366323413809345
000040 fe 80 46 15 32 a3 a8 bf 4e 63 c9 ca c6 7c a7 bf
       -0.048120083901496344 -0.04587384438918339
000050 9e 45 4c 80 5b 56 a6 bf 75 e4 f6 f0 f6 60 a5 bf
       -0.04362760487687044 -0.04175540629825828
000060 ae 57 c7 96 c4 76 a4 bf e6 ca 97 3c 92 8c a3 bf
       -0.039968627362824236 -0.03818184842739018
000070 1a 3e 68 e2 5f a2 a2 bf 53 b1 38 88 2d b8 a1 bf
       -0.0363950694919561 -0.03460829055652206
000080 b7 52 25 e5 0d 34 a1 bf 70 62 1c a8 67 d7 a0 bf
       -0.03360026762189732 -0.032893409034106535
000090 29 72 13 6b c1 7a a0 bf e0 81 0a 2e 1b 1e a0 bf
       -0.03218655044631575 -0.03147969185852495
0000a0 33 23 03 e2 e9 82 9f bf 1c c2 46 db bc f0 9e bf
       -0.030772833270734167 -0.030215216525620744
0000b0 23 94 80 4e b8 75 9e bf 2b 66 ba c1 b3 fa 9d bf
       -0.029745940963170747 -0.029276665400720752
0000c0 33 38 f4 34 af 7f 9d bf 38 0a 2e a8 aa 04 9d bf
       -0.028807389838270758 -0.028338114275820753
0000d0 ca 9b a2 a7 b3 44 9d bf 78 3c 2a 92 2d 27 9e bf
       -0.028582388979568475 -0.029446327253534993
0000e0 25 dd b1 7c a7 09 9f bf d7 7d 39 67 21 ec 9f bf
       -0.030310265527501507 -0.03117420380146804
0000f0 42 8f e0 a8 4d 67 a0 bf 51 a4 af b1 99 8b a0 bf
       -0.03203814207543455 -0.0323150662805537
000100 76 f1 c3 17 dd 4e a0 bf 9a 3e d8 7d 20 12 a0 bf
       -0.03185168185334224 -0.031388297426130765
000110 7e 17 d9 c7 c7 aa 9f bf c7 b1 01 94 4e 31 9f bf
       -0.0309249129989193 -0.030461528571707832
000120 bc 31 fc 48 99 62 9d bf d6 cc 50 64 30 18 99 bf
       -0.028696436957987834 -0.02450633632925022
000130 ef 67 a5 7f c7 cd 94 bf 08 03 fa 9a 5e 83 90 bf
       -0.020316235700512605 -0.01612613507177499
000140 18 3c 9d 6c eb 71 88 bf dc f3 c0 e5 88 02 81 bf
       -0.0119360344430373 -0.00830561591294015
000150 3a 0e 34 3f e6 cc 79 bf bd 34 e6 b2 ba 94 71 bf
       -0.006298922922045197 -0.004292229931150246
000160 7e b6 30 4d 1e b9 62 bf 20 1c a8 a4 39 46 32 bf
       -0.002285536940255294 -0.0002788439493603429
000170 02 64 66 a0 10 15 55 3f b0 cf 40 06 de 73 43 3f
       0.0012867605561039945 0.0005936464408535704
000180 80 41 59 a2 29 13 1a bf 12 20 d7 6e a8 f8 49 bf
       -9.946767439684111e-05 -0.0007925817896472529
000190 15 8c b1 d4 75 57 58 bf e1 1d ba 31 04 d0 61 bf
       -0.0014856959048976705 -0.002174385253798525
0001a0 9e 15 57 ec cf f9 66 bf 4e 0d f4 a6 9b 23 6c bf
       -0.0028046666145395546 -0.0034349479752805783
0001b0 80 82 c8 b0 b3 a6 70 bf 5e fe 16 8e 99 3b 73 bf
       -0.004065229336021603 -0.004695510696762632
0001c0 36 7a 65 6b 7f d0 75 bf f4 28 ff 53 f1 e4 7b bf
       -0.005325792057503656 -0.0068101336364156835
0001d0 ac b3 01 3a 05 07 81 bf d6 d2 03 ca 91 1b 84 bf
       -0.008314171631548316 -0.009818209626680934
0001e0 00 f2 05 5a 1e 30 87 bf 32 11 08 ea aa 44 8a bf
       -0.011322247621813553 -0.012826285616946185
0001f0 1c 5a a2 fd de d6 8d bf 12 28 6a c2 bd bc 90 bf
       -0.014569990268040782 -0.016344990721826554
000200 12 23 03 06 0c 8e 92 bf 12 1e 9c 49 5a 5f 94 bf
       -0.01811999117561231 -0.01989499162939807
000210 16 19 35 8d a8 30 96 bf 8a 77 32 5b 0a 3d 98 bf
       -0.02166999208318384 -0.023670350853187062
000220 c6 de a0 fa fa 58 9a bf fd 45 0f 9a eb 74 9c bf
       -0.02573005823816634 -0.027789765623145602
000230 34 ad 7d 39 dc 90 9e bf 38 0a 76 6c 66 56 a0 bf
       -0.029849473008124863 -0.03190918039310414
000240 7f 66 11 3c 85 06 a1 bf 8e b1 45 0d 26 8e a1 bf
       -0.03325287206889715 -0.034287633056780384
000250 9e fc 79 de c6 15 a2 bf ad 47 ae af 67 9d a2 bf
       -0.03532239404466363 -0.03635715503254686
000260 bc 92 e2 80 08 25 a3 bf 8f 31 0c a6 bd 4d a3 bf
       -0.0373919160204301 -0.03770249034832595
000270 18 3f 36 29 a3 38 a3 bf a1 4c 60 ac 88 23 a3 bf
       -0.03754148366999582 -0.0373804769916657
000280 2b 5a 8a 2f 6e 0e a3 bf b4 67 b4 b2 53 f9 a2 bf
       -0.03721947031333558 -0.03705846363500545
000290 19 b7 f2 76 2c 38 a2 bf cd e6 29 3f 79 d3 a0 bf
       -0.03558482124331714 -0.03286341568032256
0002a0 10 2d c2 0e 8c dd 9e bf 87 8c 30 9f 25 14 9c bf
       -0.030142010117328033 -0.027420604554333507
0002b0 fd eb 9e 2f bf 4a 99 bf b8 90 ec fd b1 04 96 bf
       -0.024699198991338978 -0.021502286074920746
0002c0 7e 76 d6 6c 4d 12 92 bf 5e b8 80 b7 d1 3f 8c bf
       -0.017647943275383764 -0.013793600475846709
0002d0 e8 83 54 95 08 5b 84 bf e4 9e 50 e6 7e ec 78 bf
       -0.009939257676309723 -0.006084914876772738
0002e0 ce 5d aa 82 e8 70 62 bf 48 07 b8 26 e9 3c 59 3f
       -0.0022511044711099664 0.0015404011600143753
0002f0 da 32 b1 d4 e8 d6 75 3f ca 31 da af 4b af 82 3f
       0.0053319067911387855 0.009123412422263128
000300 26 ca 5b f5 22 73 8a 3f 88 c3 23 79 ce 8b 90 3f
       0.012914918053387469 0.016158319610386523
000310 78 bd 93 7b 27 07 92 3f 70 b7 03 7e 80 82 93 3f
       0.01760541621928044 0.019052512828174384
000320 60 b1 73 80 d9 fd 94 3f 50 ab e3 82 32 79 96 3f
       0.0204996094370683 0.021946706045962217
000330 18 a7 49 39 1b ea 97 3f 35 47 7f a4 55 1b 99 3f
       0.023353982326091843 0.024518335499869443
000340 59 e7 b4 0f 90 4c 9a 3f 76 87 ea 7a ca 7d 9b 3f
       0.025682688673647067 0.026847041847424667
000350 94 27 20 e6 04 af 9c 3f 40 93 df ba e6 e6 9d 3f
       0.02801139502120227 0.02920113101562838
000360 c8 9b a2 81 1a a3 9f 3f 28 d2 32 24 a7 af a0 3f
       0.03089562813024907 0.03259012524486976
000370 71 56 94 07 c1 8d a1 3f b5 da f5 ea da 6b a2 3f
       0.03428462235949049 0.03597911947411118
000380 f9 5e 57 ce f4 49 a3 3f c7 44 cc d0 72 d7 a3 3f
       0.03767361658873187 0.03875311659624852
000390 93 9e 3c b4 22 61 a4 3f 63 f8 ac 97 d2 ea a4 3f
       0.039803585530816886 0.04085405446538528
0003a0 2f 52 1d 7b 82 74 a5 3f fc ab 8d 5e 32 fe a5 3f
       0.041904523399953646 0.04295499233452202
0003b0 32 82 c0 c6 6a 13 a7 3f e5 57 4c bf fb 3e a8 3f
       0.04507001568004333 0.04735552511390021
0003c0 98 2d d8 b7 8c 6a a9 3f 50 03 64 b0 1d 96 aa 3f
       0.04964103454775709 0.051926543981614004
0003d0 03 d9 ef a8 ae c1 ab 3f a2 41 7b 73 a8 8d ac 3f
       0.05421205341547088 0.055768264862879904
0003e0 5c 3b bd 73 eb 3c ad 3f 15 35 ff 73 2e ec ad 3f
       0.05710540569145081 0.05844254652002171
0003f0 d3 2e 41 74 71 9b ae 3f 8d 28 83 74 b4 4a af 3f
       0.059779687348592646 0.06111682817716355
000400 cc 4d e9 77 0a dc af 3f 7f 8c 09 b6 84 2f b0 3f
       0.0622256537796165 0.06322507328290959
000410 18 72 1e 30 04 71 b0 3f b2 57 33 aa 83 b2 b0 3f
       0.06422449278620268 0.06522391228949578
000420 4a 3d 48 24 03 f4 b0 3f 2f 53 44 12 30 ed b1 3f
       0.06622333179278886 0.07002544828385447
000430 7e b7 3f 6c b1 69 b3 3f cc 1b 3b c6 32 e6 b4 3f
       0.07583149807734732 0.08163754787084015
000440 22 80 36 20 b4 62 b6 3f 71 e4 31 7a 35 df b7 3f
       0.0874435976643331 0.09324964745782595
000450 6f a7 96 b9 3c 5e b9 3f ca 42 72 e4 e3 df ba 3f
       0.09909419566124965 0.10497879340460795
000460 25 de 4d 0f 8b 61 bc 3f 80 79 29 3a 32 e3 bd 3f
       0.11086339114796624 0.11674798889132454
000470 e3 14 05 65 d9 64 bf 3f 34 fc 46 fb 89 71 c0 3f
       0.12263258663468295 0.12846493501089784
000480 c5 0f 22 02 0e 2e c1 3f 56 23 fd 08 92 ea c1 3f
       0.13421797851708397 0.1399710220232701
000490 e7 36 d8 0f 16 a7 c2 3f 7c 4a b3 16 9a 63 c3 3f
       0.14572406552945624 0.1514771090356425
0004a0 43 d8 70 06 b3 f7 c3 3f ee fd 6f 70 5a 2f c4 3f
       0.15599668325893576 0.15769510736571085
0004b0 98 23 6f da 01 67 c4 3f 43 49 6e 44 a9 9e c4 3f
       0.15939353147248592 0.161091955579261
0004c0 ee 6e 6d ae 50 d6 c4 3f 36 72 bf e9 c1 00 c5 3f
       0.1627903796860361 0.16408561624020174
0004d0 ec a0 c6 84 df f9 c4 3f a1 cf cd 1f fd f2 c4 3f
       0.16387552245328807 0.16366542866637437
0004e0 57 fe d4 ba 1a ec c4 3f 0d 2d dc 55 38 e5 c4 3f
       0.1634553348794607 0.16324524109254704
0004f0 dc 7b 4e b0 cc d9 c4 3f d2 8a 93 93 91 ac c4 3f
       0.16289671524734117 0.16151637750507192
000500 c9 99 d8 76 56 7f c4 3f c0 a8 1d 5a 1b 52 c4 3f
       0.1601360397628027 0.15875570202053346
000510 b7 b7 62 3d e0 24 c4 3f 05 5c 6a dc 76 f9 c3 3f
       0.15737536427826423 0.15605054628824191
000520 00 f2 2f 62 09 14 c4 3f fb 87 f5 e7 9b 2e c4 3f
       0.15686147016812413 0.15767239404800634
000530 f6 1d bb 6d 2e 49 c4 3f f1 b3 80 f3 c0 63 c4 3f
       0.15848331792788856 0.15929424180777077
000540 ec 49 46 79 53 7e c4 3f b4 16 5d d1 fd 71 c3 3f
       0.16010516568765298 0.15191624377091772
000550 f0 00 e7 e8 44 50 c2 3f 2c eb 70 00 8c 2e c1 3f
       0.14307462093530132 0.13423299809968492
000560 67 d5 fa 17 d3 0c c0 3f 45 7f 09 5f 34 d6 bd 3f
       0.1253913752640685 0.11654975242845207
000570 37 c7 c0 6c 08 91 ba 3f 51 3c 9e 51 8f 1a b7 3f
       0.10377552657226095 0.09024902098302447
000580 6b b1 7b 36 16 a4 b3 3f 62 26 59 1b 9d 2d b0 3f
       0.07672251539378798 0.063196009804551
000590 f8 36 6d 00 48 6e a9 3f 5c b4 be 89 6e 56 a6 3f
       0.04966950421531452 0.043628172220771616
0005a0 96 a8 05 42 d1 8b a4 3f d0 9c 4c fa 33 c1 a2 3f
       0.040129222211207224 0.03663027220164283
0005b0 0b 91 93 b2 96 f6 a0 3f 8b 0a b5 d5 f2 57 9e 3f
       0.03313132219207845 0.02963237218251406
0005c0 dc ad e6 fd eb 16 96 3f 9c 19 08 72 bc b7 86 3f
       0.02157181489171288 0.011092636327714449
0005d0 e0 77 2d 84 0e 1a 44 3f 78 6b 82 a1 7a 34 84 bf
       0.0006134577637160153 -0.009865720800282793
0005e0 cc d6 a3 15 4b d5 94 bf 91 37 90 c8 15 50 9e bf
       -0.02034489936428123 -0.029602375379958416
0005f0 72 87 88 8a e6 67 a3 bf 1b f3 c8 30 c2 a7 a7 bf
       -0.03790207329826857 -0.04620177121657872
000600 c4 5e 09 d7 9d e7 ab bf 37 e5 a4 be bc 13 b0 bf
       -0.054501469134888875 -0.06280116705319903
000610 07 c0 ec 23 b0 02 b2 bf 73 c8 97 05 df b9 b3 bf
       -0.07035351636000096 -0.07705491911454647
000620 df d0 42 e7 0d 71 b5 bf 4a d9 ed c8 3c 28 b7 bf
       -0.08375632186909197 -0.09045772462363746
000630 c8 e1 98 aa 6b df b8 bf 59 3c 2d 98 6d 03 ba bf
       -0.09715912737818322 -0.10161480870486751
000640 7d b4 b1 b6 c0 31 ba bf a1 2c 36 d5 13 60 ba bf
       -0.1023216672926583 -0.1030285258804491
000650 c5 a4 ba f3 66 8e ba bf e8 1c 3f 12 ba bc ba bf
       -0.10373538446823989 -0.10444224305603067
000660 76 f8 6c d1 4a 2c ba bf c6 9c ed 33 60 b5 b7 bf
       -0.10223834622317604 -0.09261132495668098
000670 16 41 6e 96 75 3e b5 bf 66 e5 ee f8 8a c7 b2 bf
       -0.08298430369018592 -0.07335728242369086
000680 9e 89 6f 5b a0 50 b0 bf 88 7d f5 6f f6 a0 ad bf
       -0.06373026115719546 -0.057868672530044185
000690 33 80 63 2f 35 75 b1 bf a2 41 cc 26 ef 19 b4 bf
       -0.06819469840002128 -0.07852072426999837
0006a0 11 03 35 1e a9 be b6 bf 80 c4 9d 15 63 63 b9 bf
       -0.08884675013997546 -0.09917277600995256
0006b0 65 34 1e 1a 7f 01 bc bf 69 8f 34 37 1f 61 be bf
       -0.1093978346600167 -0.11866946313653916
0006c0 37 75 25 aa 5f 60 c0 bf b9 a2 b0 b8 2f 90 c1 bf
       -0.12794109161306164 -0.1372127200895841
0006d0 3c d0 3b c7 ff bf c2 bf fa e5 0c c2 54 ef c3 bf
       -0.1464843485661066 -0.15574130511394896
0006e0 9f b8 0d 9d 8c 73 c4 bf 44 8b 0e 78 c4 f7 c4 bf
       -0.1597762839186929 -0.16381126272343682
0006f0 e9 5d 0f 53 fc 7b c5 bf 8e 30 10 2e 34 00 c6 bf
       -0.16784624152818076 -0.1718812203329247
000700 34 03 11 09 6c 84 c6 bf 0a ee d9 fa b6 2b c6 bf
       -0.17591619913766865 -0.17320906876180714
000710 02 dc 30 55 1d bd c5 bf fa c9 87 af 83 4e c5 bf
       -0.16983381900510613 -0.16645856924840513
000720 f2 b7 de 09 ea df c4 bf ea a5 35 64 50 71 c4 bf
       -0.16308331949170413 -0.15970806973500312
000730 cc 6c 54 78 73 02 c4 bf 44 6f ca 77 87 93 c3 bf
       -0.15632480025747097 -0.152939733020384
000740 bc 71 40 77 9b 24 c3 bf 34 74 b6 76 af b5 c2 bf
       -0.14955466578329701 -0.14616959854621003
000750 ac 76 2c 76 c3 46 c2 bf d7 58 ae be 0e cc c1 bf
       -0.14278453130912305 -0.1390398436603337
000760 5b 35 7c 94 db 4c c1 bf e0 11 4a 6a a8 cd c0 bf
       -0.13515801191571594 -0.1312761801710982
000770 64 ee 17 40 75 4e c0 bf d1 95 cb 2b 84 9e bf bf
       -0.12739434842648045 -0.12351251668186271
000780 32 10 b9 d6 ed 3e be bf e5 23 6f 15 80 a6 bc bf
       -0.11814772121675857 -0.1119155933694312
000790 a9 37 25 54 12 0e bb bf 6d 4b db 92 a4 75 b9 bf
       -0.10568346552210407 -0.09945133767477694
0007a0 31 5f 91 d1 36 dd b7 bf 2e 1a 5f ab 0f cc b6 bf
       -0.09321920982744981 -0.0890512269389567
0007b0 b5 2d 9e 6e 12 2f b6 bf 3d 41 dd 31 15 92 b5 bf
       -0.0866557617247768 -0.08426029651059692
0007c0 c5 54 1c f5 17 f5 b4 bf 4d 68 5b b8 1a 58 b4 bf
       -0.08186483129641704 -0.07946936608223716
0007d0 8d 02 3e 58 48 fa b3 bf 4d 28 86 21 3a eb b3 bf
       -0.0780377593455432 -0.07780803030451118
0007e0 0e 4e ce ea 2b dc b3 bf d0 73 16 b4 1d cd b3 bf
       -0.07757830126347917 -0.07734857222244718
0007f0 91 99 5e 7d 0f be b3 bf 31 eb c5 50 4e b4 b3 bf
       -0.07711884318141517 -0.07697
