velocity_residuals/azimuthal_velocity_residuals_cqtau/azimuthal_velocity_residuals_cqtau_nb1_gpmodel.pt (torch, 39966 bytes, 8 tensors)

polar_kernel.base_kernel.raw_lengthscale f4 [1, 2]
2.211194 0.22537158
00000000: 3484 0d40 cfc7 663e

cartesian_kernel.base_kernel.raw_lengthscale f4 [1, 2]
0.0 0.0
00000000: 0000 0000 0000 0000

sum_kernel.kernels.0.base_kernel.raw_lengthscale f4 [1, 2]
2.211194 0.22537158
00000000: 3484 0d40 cfc7 663e

sum_kernel.kernels.1.base_kernel.raw_lengthscale f4 [1, 2]
0.0 0.0
00000000: 0000 0000 0000 0000

covar_module.kernels.0.base_kernel.raw_lengthscale f4 [1, 2]
2.211194 0.22537158
00000000: 3484 0d40 cfc7 663e

covar_module.kernels.1.base_kernel.raw_lengthscale f4 [1, 2]
0.0 0.0
00000000: 0000 0000 0000 0000

train_x f4 [1285, 4]
6.0 -3.1415927 -6.0 -7.3478806e-16 6.0 -3.117049 -5.998193 -0.14724737
6.0 -3.0925052 -5.9927726 -0.29440606 6.0 -3.0679617 -5.9837427 -0.4413874
6.0 -3.043418 -5.9711084 -0.5881028 6.0 -3.0188742 -5.9548774 -0.73446405
6.0 -2.9943304 -5.935059 -0.88038284 6.0 -2.969787 -5.911666 -1.0257714
6.0 -2.9452431 -5.8847117 -1.1705419 6.0 -2.9206994 -5.8542128 -1.3146074
6.0 -2.8961558 -5.8201876 -1.4578811 6.0 -2.871612 -5.782656 -1.6002766
6.0 -2.8470683 -5.741642 -1.741708 6.0 -2.8225245 -5.6971693 -1.8820904
6.0 -2.797981 -5.6492643 -2.0213392 6.0 -2.7734373 -5.5979567 -2.1593702
6.0 -2.7488935 -5.5432773 -2.2961006 6.0 -2.72435 -5.4852586 -2.431448
6.0 -2.6998062 -5.423936 -2.5653305 6.0 -2.6752625 -5.359346 -2.697668
6.0 -2.6507187 -5.2915277 -2.8283803 6.0 -2.6261752 -5.220522 -2.957389
6.0 -2.6016314 -5.146372 -3.0846164 6.0 -2.5770876 -5.0691214 -3.2099857
6.0 -2.552544 -4.9888177 -3.3334215 6.0 -2.5280004 -4.905509 -3.4548492
6.0 -2.5034566 -4.8192453 -3.5741959 6.0 -2.478913 -4.7300787 -3.6913896
6.0 -2.4543693 -4.638063 -3.8063598 6.0 -2.4298255 -4.543253 -3.919037
6.0 -2.4052818 -4.445707 -4.0293536 6.0 -2.3807383 -4.3454823 -4.1372433
6.0 -2.3561945 -4.2426405 -4.2426405 6.0 -2.3316507 -4.1372433 -4.3454823
6.0 -2.3071072 -4.0293536 -4.445707 6.0 -2.2825634 -3.919037 -4.543253
6.0 -2.2580197 -3.8063598 -4.638063 6.0 -2.233476 -3.6913896 -4.7300787
6.0 -2.2089324 -3.5741959 -4.8192453 6.0 -2.1843886 -3.4548492 -4.905509
6.0 -2.1598449 -3.3334215 -4.9888177 6.0 -2.1353014 -3.2099857 -5.0691214
6.0 -2.1107576 -3.0846164 -5.146372 6.0 -2.0862138 -2.957389 -5.220522
6.0 -2.06167 -2.8283803 -5.2915277 6.0 -2.0371265 -2.697668 -5.359346
6.0 -2.0125828 -2.5653305 -5.423936 6.0 -1.9880391 -2.431448 -5.4852586
6.0 -1.9634954 -2.2961006 -5.5432773 6.0 -1.9389517 -2.1593702 -5.5979567
6.0 -1.914408 -2.0213392 -5.6492643 6.0 -1.8898643 -1.8820904 -5.6971693
6.0 -1.8653207 -1.741708 -5.741642 6.0 -1.8407769 -1.6002766 -5.782656
6.0 -1.8162333 -1.4578811 -5.8201876 6.0 -1.7916895 -1.3146074 -5.8542128
6.0 -1.7671459 -1.1705419 -5.8847117 6.0 -1.7426022 -1.0257714 -5.911666
6.0 -1.7180585 -0.88038284 -5.935059 6.0 -1.6935148 -0.73446405 -5.9548774
6.0 -1.6689711 -0.5881028 -5.9711084 6.0 -1.6444274 -0.4413874 -5.9837427
6.0 -1.6198837 -0.29440606 -5.9927726 6.0 -1.59534 -0.14724737 -5.998193
00000000: 0000 c040 db0f 49c0 0000 c0c0 cac9 53a6
00000010: 0000 c040 bb7d 47c0 32f1 bfc0 04c8 16be
00000020: 0000 c040 9beb 45c0 cbc4 bfc0 64bc 96be
00000030: 0000 c040 7c59 44c0 d27a bfc0 87fd e1be
00000040: 0000 c040 5cc7 42c0 5213 bfc0 e88d 16bf
00000050: 0000 c040 3c35 41c0 5b8e bec0 d605 3cbf
00000060: 0000 c040 1ca3 3fc0 01ec bdc0 c560 61bf
00000070: 0000 c040 fd10 3ec0 5e2c bdc0 7a4c 83bf
00000080: 0000 c040 dd7e 3cc0 8f4f bcc0 51d4 95bf
00000090: 0000 c040 bdec 3ac0 b655 bbc0 0e45 a8bf
000000a0: 0000 c040 9e5a 39c0 fa3e bac0 d99b babf
000000b0: 0000 c040 7ec8 37c0 850b b9c0 ddd5 ccbf
000000c0: 0000 c040 5e36 36c0 88bb b7c0 4af0 debf
000000d0: 0000 c040 3ea4 34c0 364f b6c0 57e8 f0bf
000000e0: 0000 c040 1f12 33c0 c6c6 b4c0 9f5d 01c0
000000f0: 0000 c040 ff7f 31c0 7622 b3c0 1f33 0ac0
00000100: 0000 c040 dfed 2fc0 8762 b1c0 50f3 12c0
00000110: 0000 c040 c05b 2ec0 3d87 afc0 d89c 1bc0
00000120: 0000 c040 a0c9 2cc0 e290 adc0 602e 24c0
00000130: 0000 c040 8037 2bc0 c37f abc0 98a6 2cc0
00000140: 0000 c040 60a5 29c0 3254 a9c0 2f04 35c0
00000150: 0000 c040 4113 28c0 840e a7c0 dd45 3dc0
00000160: 0000 c040 2181 26c0 14af a4c0 5b6a 45c0
00000170: 0000 c040 01ef 24c0 3e36 a2c0 6870 4dc0
00000180: 0000 c040 e25c 23c0 65a4 9fc0 c756 55c0
00000190: 0000 c040 c2ca 21c0 eef9 9cc0 401c 5dc0
000001a0: 0000 c040 a238 20c0 4237 9ac0 a0bf 64c0
000001b0: 0000 c040 83a6 1ec0 ce5c 97c0 ba3f 6cc0
000001c0: 0000 c040 6314 1dc0 036b 94c0 669b 73c0
000001d0: 0000 c040 4382 1bc0 5462 91c0 81d1 7ac0
000001e0: 0000 c040 23f0 19c0 3b43 8ec0 77f0 80c0
000001f0: 0000 c040 045e 18c0 310e 8bc0 4c64 84c0
00000200: 0000 c040 e4cb 16c0 b6c3 87c0 b6c3 87c0
00000210: 0000 c040 c439 15c0 4c64 84c0 310e 8bc0
00000220: 0000 c040 a5a7 13c0 77f0 80c0 3b43 8ec0
00000230: 0000 c040 8515 12c0 81d1 7ac0 5462 91c0
00000240: 0000 c040 6583 10c0 669b 73c0 036b 94c0
00000250: 0000 c040 45f1 0ec0 ba3f 6cc0 ce5c 97c0
00000260: 0000 c040 265f 0dc0 a0bf 64c0 4237 9ac0
00000270: 0000 c040 06cd 0bc0 401c 5dc0 eef9 9cc0
00000280: 0000 c040 e63a 0ac0 c756 55c0 65a4 9fc0
00000290: 0000 c040 c7a8 08c0 6870 4dc0 3e36 a2c0
000002a0: 0000 c040 a716 07c0 5b6a 45c0 14af a4c0
000002b0: 0000 c040 8784 05c0 dd45 3dc0 840e a7c0
000002c0: 0000 c040 67f2 03c0 2f04 35c0 3254 a9c0
000002d0: 0000 c040 4860 02c0 98a6 2cc0 c37f abc0
000002e0: 0000 c040 28ce 00c0 602e 24c0 e290 adc0
000002f0: 0000 c040 1178 febf d89c 1bc0 3d87 afc0
00000300: 0000 c040 d153 fbbf 50f3 12c0 8762 b1c0
00000310: 0000 c040 922f f8bf 1f33 0ac0 7622 b3c0
00000320: 0000 c040 520b f5bf 9f5d 01c0 c6c6 b4c0
00000330: 0000 c040 13e7 f1bf 57e8 f0bf 364f b6c0
00000340: 0000 c040 d4c2 eebf 4af0 debf 88bb b7c0
00000350: 0000 c040 949e ebbf ddd5 ccbf 850b b9c0
00000360: 0000 c040 557a e8bf d99b babf fa3e bac0
00000370: 0000 c040 1556 e5bf 0e45 a8bf b655 bbc0
00000380: 0000 c040 d631 e2bf 51d4 95bf 8f4f bcc0
00000390: 0000 c040 970d dfbf 7a4c 83bf 5e2c bdc0
000003a0: 0000 c040 57e9 dbbf c560 61bf 01ec bdc0
000003b0: 0000 c040 18c5 d8bf d605 3cbf 5b8e bec0
000003c0: 0000 c040 d8a0 d5bf e88d 16bf 5213 bfc0
000003d0: 0000 c040 997c d2bf 87fd e1be d27a bfc0
000003e0: 0000 c040 5958 cfbf 64bc 96be cbc4 bfc0
000003f0: 0000 c040 1a34 ccbf 04c8 16be 32f1 bfc0

train_y f4 [1285]
-0.0124948695 -0.0096577 -0.0068630325 -0.0038125056 -0.0014484664 0.00037641276 0.0023354648 0.0043877084
0.007347092 0.010815739 0.014784122 0.018153097 0.02095862 0.02114773 0.020423349 0.01849425
0.018090462 0.018421268 0.02254161 0.02653908 0.030162793 0.030017912 0.02777674 0.024315352
0.021605788 0.020994803 0.020575257 0.020389946 0.01710442 0.0131432265 0.0070485612 0.0012012983
-0.004456404 -0.008322263 -0.01128587 -0.012542604 -0.013014922 -0.012307286 -0.010208104 -0.007328487
-0.0072031235 -0.007748311 -0.009952536 -0.012065009 -0.014174744 -0.015524496 -0.016336378 -0.014264686
-0.0088098785 0.00053811417 0.012286315 0.024048967 0.02979424 0.033700757 0.034801133 0.035988554
0.037010387 0.039412867 0.042342696 0.047134504 0.051702905 0.05606281 0.0582428 0.05916664
0.05639026 0.050688084 0.041980933 0.032738347 0.023860093 0.019522531 0.017609265 0.019359238
0.022968734 0.02750391 0.030563673 0.0328334 0.03299427 0.03384467 0.035217628 0.04034296
0.045420237 0.048414845 0.04747279 0.042763107 0.03771741 0.032879166 0.030036662 0.025973188
0.02019867 0.012714438 0.00447582 -0.003137606 -0.010376598 -0.016624 -0.023318399 -0.03041718
-0.03925503 -0.047520656 -0.052801862 -0.053904667 -0.051434852 -0.045722593 -0.039934564 -0.0362389
-0.033529144 -0.031960826 -0.03180647 -0.032177635 -0.031245355 -0.029433133 -0.025845999 -0.021607092
-0.017016267 -0.009957237 -0.0023419848 0.0065064607 0.015034155 0.023348553 0.03019233 0.036440767
0.040406622 0.041777864 0.040165957 0.033716492 0.025594782 0.013305384 0.0016213468 -0.009158807
-0.015852395 -0.020522676 -0.0225213 -0.025481168 -0.03123702 -0.0375195 -0.044151906 -0.048002962
-0.050641462 -0.049869448 -0.047107756 -0.042272605 -0.036599282 -0.03104531 -0.029596023 -0.031667076
-0.039153114 -0.05081317 -0.064127795 -0.07553165 -0.08489884 -0.0899244 -0.0917825 -0.09147679
-0.088044554 -0.084315784 -0.08136505 -0.07976088 -0.079428054 -0.077773005 -0.075104855 -0.06825807
-0.060726993 -0.052359622 -0.044725582 -0.037452087 -0.03399613 -0.0325427 -0.03520965 -0.039263505
-0.0442475 -0.045627084 -0.045437764 -0.040397435 -0.03473618 -0.02863905 -0.024118233 -0.020781498
-0.020746788 -0.022219654 -0.02544857 -0.029117659 -0.03340793 -0.04006607 -0.04683267 -0.053310618
-0.055234715 -0.054924693 -0.049248923 -0.04412359 -0.040669464 -0.040371653 -0.042521108 -0.044055082
-0.04487316 -0.042613715 -0.040460486 -0.038379293 -0.035142243 -0.031261843 -0.02673404 -0.023614096
-0.02312275 -0.027121656 -0.032923214 -0.033446927 -0.029842418 -0.01697909 -0.0008262998 0.017862013
0.033050973 0.047165085 0.05678959 0.06328698 0.06648552 0.06192723 0.055306446 0.04552897
0.035624504 0.025285902 0.016520267 0.008536193 0.0030275332 -0.0020899118 -0.0065137376 -0.010136678
-0.013272515 -0.013739991 -0.013485831 -0.011359823 -0.011277114 -0.013149831 -0.02132741 -0.031147812
-0.04179151 -0.049936615 -0.05458324 -0.053914655 -0.051252503 -0.045532025 -0.041900437 -0.04233412
-0.047037557 -0.054309737 -0.06067358 -0.066269435 -0.06923725 -0.0685503 -0.06475226 -0.055848222
-0.045951728 -0.035198975 -0.02557707 -0.01732479 -0.01295366 -0.010221991 -0.010980067 -0.011275308
00000000: 48b7 4cbc 543b 1ebc 4ae3 e0bb 3bdb 79bb
00000010: 78da bdba 4459 c539 990e 193b c4c6 8f3b
00000020: e0bf f03b 7f34 313c 1a39 723c ceb5 943c
00000030: 69b1 ab3c 013e ad3c de4e a73c 4181 973c
00000040: 7332 943c 33e8 963c 2fa9 b83c 7c68 d93c
00000050: f617 f73c 20e8 f53c 0c8c e33c fd30 c73c
00000060: 9ffe b03c 4bfd ab3c 718d a83c d108 a73c
00000070: 921e 8c3c b056 573c 9ef7 e63b e274 9d3a
00000080: 0707 92bb 1a5a 08bc 5fe8 38bc 7e7f 4dbc
00000090: 8a3c 55bc 80a4 49bc e43f 27bc ce23 f0bb
000000a0: 2e08 ecbb 8be5 fdbb f60f 23bc 51ac 45bc
000000b0: 2f3d 68bc 755a 7ebc ded3 85bc 6eb6 69bc
000000c0: 4f57 10bc 3b10 0d3a 8a4c 493c 5702 c53c
000000d0: 0d13 f43c ce09 0a3d a28b 0e3d bc68 133d
000000e0: 3498 173d 636f 213d 896f 2d3d 1c10 413d
000000f0: 6dc6 533d 1ea2 653d 0190 6e3d b858 723d
00000100: 79f9 663d 4f9e 4f3d 33f4 2b3d a518 063d
00000110: 3e76 c33c b7ed 9f3c 4e41 903c 4497 9e3c
00000120: ed28 bc3c e14f e13c ab60 fa3c 517c 063d
00000130: 0025 073d b5a0 0a3d 5c40 103d a93e 253d
00000140: 920a 3a3d a54e 463d d472 423d 5e28 2f3d
00000150: 927d 1a3d 4eac 063d 720f f63c b9c5 d43c
00000160: ae77 a53c 3850 503c e6a9 923b 4ba0 4dbb
00000170: 9b02 2abc 0e2f 88bc 3a06 bfbc 732d f9bc
00000180: e2c9 20bd 05a5 42bd c446 58bd 24cb 5cbd
00000190: 5aad 52bd 9d47 3bbd 6d92 23bd 3e6f 14bd
000001a0: db55 09bd 5be9 02bd 8047 02bd b2cc 03bd
000001b0: 42f6 ffbc c11d f1bc fdba d3bc 5b01 b1bc
000001c0: b365 8bbc ae23 23bc fc7b 19bb 2634 d53b
000001d0: d151 763c 7745 bf3c e855 f73c ea42 153d
000001e0: 6a81 253d 441f 2b3d 0f85 243d 4e1a 0a3d
000001f0: 26ac d13c d3fe 593c 5f83 d43a d20e 16bc
00000200: e2dc 81bc 2c1f a8bc 977e b8bc e2bd d0bc
00000210: c7e4 ffbc 0cae 19bd a1d8 34bd c19e 44bd
00000220: 6c6d 4fbd e843 4cbd 10f4 40bd 0a26 2dbd
00000230: 21e9 15bd bc52 febc 5c73 f2bc 56b5 01bd
00000240: 045f 20bd 7821 50bd 6f55 83bd 56b0 9abd
00000250: 71df adbd 492a b8bd 77f8 bbbd 2f58 bbbd
00000260: b450 b4bd c1ad acbd b8a2 a6bd ac59 a3bd
00000270: 2dab a2bd 7447 9fbd 93d0 99bd e3ca 8bbd
00000280: debc 78bd 0b77 56bd 2c32 37bd 5c67 19bd
00000290: 873f 0bbd 7f4b 05bd fe37 10bd c5d2 20bd
000002a0: de3c 35bd 77e3 3abd f31c 3abd c877 25bd
000002b0: 8647 0ebd 719c eabc 9a93 c5bc f63d aabc
000002c0: 2bf5 a9bc fe05 b6bc 8579 d0bc 2888 eebc
000002d0: c1d6 08bd 521c 24bd 9dd3 3fbd 3c5c 5abd
000002e0: cc3d 62bd b7f8 60bd 3db9 49bd f0ba 34bd
000002f0: 0695 26bd bf5c 25bd 9d2a 2ebd 1a73 34bd
00000300: ebcc 37bd b88b 2ebd e5b9 25bd 9b33 1dbd
00000310: 50f1 0fbd 6b0c 00bd 5801 dbbc 5972 c1bc
00000320: ec6b bdbc 3c2e debc 7eda 06bd a5ff 08bd
00000330: 1678 f4bc bc17 8bbc 0a9c 58ba 5b53 923c
00000340: 7560 073d 2d30 413d 339c 683d 9b9c 813d
00000350: 8f29 883d 68a7 7d3d 0389 623d 967c 3a3d
00000360: 00eb 113d 6124 cf3c 8355 873c 63db 0b3c
00000370: 9469 463b e7f6 08bb 3171 d5bb 4f14 26bc
00000380: f674 59bc b31d 61bc adf3 5cbc 8d1e 3abc
00000390: a5c3 38bc 6472 57bc d2b6 aebc b229 ffbc
000003a0: 932d 2bbd 568a 4cbd ad92 5fbd 9dd5 5cbd
000003b0: 25ee 51bd ca7f 3abd cb9f 2bbd 8b66 2dbd
000003c0: 74aa 40bd e373 5ebd dc84 78bd 45b8 87bd
000003d0: 42cc 8dbd 1a64 8cbd d59c 84bd 1bc1 64bd
000003e0: e137 3cbd cd2c 10bd 0187 d1bc b8ec 8dbc
000003f0: 973b 54bc 237a 27bc bde5 33bc 12bc 38bc
