velocity_residuals/azimuthal_velocity_residuals_lkca15_dbell_b0p30/azimuthal_velocity_residuals_lkca15_dbell_b0p30_gridded.npy (npy, 135824 bytes, 1 tensors)

array f8 [66, 257]
0.12263 0.12088902716710624 0.12330805433421249 0.12572708150131878 0.12814610866842502 0.13056513583553125 0.1316893931139058 0.1326809586328901
0.13367252415187442 0.13466408967085872 0.13565565518984302 0.13792438482095737 0.14048478013063428 0.1430451754403112 0.14560557074998817 0.14816596605966512
0.1504360996764857 0.15259398186532477 0.15475186405416388 0.156909746243003 0.1590676284318421 0.1578089824866622 0.15452798054166664 0.15124697859667105
0.14796597665167546 0.14468497470667985 0.13927383080353586 0.13201282231006273 0.1247518138165896 0.11749080532311634 0.11022979682964322 0.10372513718273439
0.09817434152287499 0.09262354586301559 0.08707275020315619 0.08152195454329679 0.07370311354278228 0.061659028605258126 0.04961494366773398 0.037570858730209836
0.02552677379268547 0.007558715562896723 -0.027595718203231673 -0.06275015196936007 -0.09790458573548846 -0.13305901950161686 -0.15852233825330242 -0.13435955552732023
-0.11019677280133845 -0.08603399007535668 -0.06187120734937469 -0.03940308640906565 -0.03930491174228356 -0.039206737075501465 -0.03910856240871938 -0.03901038774193728
-0.038912213075155196 -0.03733814693443284 -0.03573004364720878 -0.03412194035998475 -0.032513837072760704 -0.030905733785536654 -0.02942788411568325 -0.02796704303424894
-0.026506201952814647 -0.02504536087138035 -0.02358451978994604 -0.024271576591356855 -0.025524287088608315 -0.026776997585859764 -0.028029708083111213 -0.02928241858036267
-0.03165990033482361 -0.03452267361818937 -0.03738544690155516 -0.04024822018492092 -0.04311099346828668 -0.03179206056434196 -0.011238183628247606 0.009315693307846935
0.029869570243941296 0.05042344718003565 0.050673748703219994 0.03162390976225795 0.012574070821296246 -0.006475768119665458 -0.025525607060627155 -0.044571325487261095
-0.06361134694783682 -0.08265136840841289 -0.1016913898689886 -0.12073141132956432 -0.13533167420182685 -0.14078429519490415 -0.14623691618798157 -0.15168953718105888
-0.15714215817413618 -0.1614343033690451 -0.16192321389226708 -0.16241212441548905 -0.162901034938711 -0.16338994546193297 -0.16371349100875876 -0.16302823087781715
-0.1623429707468755 -0.16165771061593387 -0.16097245048499226 -0.16032676875217292 -0.1604681404697311 -0.16060951218728925 -0.1607508839048474 -0.16089225562240556
-0.1610336273399637 -0.16086000150796287 -0.16067150614774126 -0.16048301078751964 -0.16029451542729803 -0.16010602006707642 -0.15848909386663168 -0.15664340755406683
-0.154797721241502 -0.15295203492893714 -0.15110634861637232 -0.14924858283405265 -0.14738718855287025 -0.14552579427168782 -0.1436643999905054 -0.14180300570932297
-0.14244909667312206 -0.14429674648176408 -0.1461443962904061 -0.14799204609904817 -0.1498396959076902 -0.148750693942178 -0.1455619807650957 -0.14237326758801339
-0.13918455441093103 -0.13599584123384872 -0.1357105687541277 -0.1384457187896626 -0.1411808688251975 -0.1439160188607324 -0.1466511688962674 -0.14976766132781902
-0.1534629609451031 -0.15715826056238713 -0.1608535601796712 -0.16454885979695533 -0.16625687016281832 -0.16341961833126917 -0.16058236649972005 -0.15774511466817093
-0.15490786283662178 -0.15120367672068333 -0.1442627277791895 -0.1373217788376957 -0.1303808298962019 -0.12343988095470808 -0.11699854040159338 -0.11428106183075325
-0.11156358325991311 -0.10884610468907299 -0.10612862611823286 -0.10356914999643949 -0.10708773496677584 -0.11060631993711222 -0.1141249049074487 -0.11764348987778506
-0.12116207484812141 -0.13191934783306833 -0.14320159629264015 -0.15448384475221197 -0.1657660932117838 -0.1770483416713556 -0.17196886146009915 -0.16375949582378072
-0.15555013018746228 -0.14734076455114353 -0.1391313989148251 -0.13120489944805677 -0.12337447709219664 -0.1155440547363365 -0.10771363238047635 -0.0998832100246162
-0.09396596810654058 -0.08906311840178059 -0.08416026869702059 -0.07925741899226042 -0.07435456928750042 -0.06377135304950993 -0.04873490009033814 -0.03369844713116635
-0.01866199417199456 -0.0036255412128227693 0.011840578359615536 0.0277959252050409 0.043751272050466264 0.05970661889589163 0.07566196574131756 0.08643369053486682
0.08855230280216199 0.09067091506945715 0.09278952733675233 0.0949081396040475 0.09573535648711179 0.09326920541415283 0.09080305434119386 0.0883369032682349
0.08587075219527585 0.08249307147335155 0.07519672005048886 0.06790036862762618 0.06060401720476349 0.0533076657819008 0.04699466363305067 0.049967396693926365
0.05294012975480206 0.055912862815677755 0.05888559587655344 0.06185774028969644 0.06462037541294448 0.06738301053619251 0.07014564565944056 0.0729082807826886
0.07567091590593664 0.07974839188100481 0.0839561639744372 0.08816393606786958 0.09237170816130197 0.09657948025473435 0.1035925506948509 0.11123447742730017
0.11887640415974944 0.12651833089219872 0.13416025762464798 0.136983555125196 0.1379692301559487 0.13895490518670142 0.13994058021745412 0.14092625524820684
0.13776655927550768 0.13218238422894213 0.12659820918237683 0.12101403413581148 0.11542985908924615 0.11417152057325015 0.11662785416582312 0.1190841877583961
0.12154052135096909 0.12399685494354207 0.12512143847293414 0.12458540404385943 0.12404936961478476 0.12351333518571007 0.12297730075663539 0.12263
00000000: bf2b 82ff ad64 bf3f 17c3 2052 95f2 be3f
00000010: c4e6 b2dc 1d91 bf3f 3a85 a233 d317 c03f
00000020: 1097 eb78 1767 c03f e6a8 34be 5bb6 c03f
00000030: 87c0 53b2 32db c03f 20aa 108d b0fb c03f
00000040: ba93 cd67 2e1c c13f 537d 8a42 ac3c c13f
00000050: ec66 471d 2a5d c13f 443f 1099 81a7 c13f
00000060: f597 1fc0 67fb c13f a6f0 2ee7 4d4f c23f
00000070: 5949 3e0e 34a3 c23f 0ba2 4d35 1af7 c23f
00000080: 5ec8 1f78 7d41 c33f 47c8 d618 3388 c33f
00000090: 31c8 8db9 e8ce c33f 1bc8 445a 9e15 c43f
000000a0: 05c8 fbfa 535c c43f c8ca 65b1 1533 c43f
000000b0: 2927 5fa7 92c7 c33f 8983 589d 0f5c c33f
000000c0: e9df 5193 8cf0 c23f 483c 4b89 0985 c23f
000000d0: 8db2 3e92 b9d3 c13f 70b8 3cd1 cbe5 c03f
000000e0: a77c 7520 bcef bf3f 6488 719e e013 be3f
000000f0: 2b94 6d1c 0538 bc3f c313 f907 bb8d ba3f
00000100: 3aa7 2522 f421 b93f b13a 523c 2db6 b73f
00000110: 28ce 7e56 664a b63f 9f61 ab70 9fde b43f
00000120: 7a95 470e 35de b23f 68b5 b9ae c591 af3f
00000130: dd3f e440 2167 a93f 52ca 0ed3 7c3c a33f
00000140: 4ea9 72ca b023 9a3f 404d 4742 e3f5 7e3f
00000150: d821 c54c 0d42 9cbf c005 87da 6410 b0bf
00000160: 0ac3 dc61 4610 b9bf 2a40 99f4 1308 c1bf
00000170: 84df 3dc1 754a c4bf 478d 72a4 b132 c1bf
00000180: 3176 4e0f db35 bcbf d5d1 b7d5 5206 b6bf
00000190: d25a 4238 95ad afbf 710f fa2e a42c a4bf
000001a0: 4fb3 02fd c51f a4bf 2d57 0bcb e712 a4bf
000001b0: 0cfb 1399 0906 a4bf ea9e 1c67 2bf9 a3bf
000001c0: c942 2535 4dec a3bf 1209 f44f fc1d a3bf
000001d0: a119 e651 354b a2bf 332a d853 6e78 a1bf
000001e0: c43a ca55 a7a5 a0bf a896 78af c0a5 9fbf
000001f0: 4e27 78df 5722 9ebf 8aac ca7c 64a3 9cbf
00000200: ca31 1d1a 7124 9bbf 09b7 6fb7 7da5 99bf
00000210: 453c c254 8a26 98bf 4c9c baee a5da 98bf
00000220: 7e78 32e9 0923 9abf ad54 aae3 6d6b 9bbf
00000230: dc30 22de d1b3 9cbf 0d0d 9ad8 35fc 9dbf
00000240: 55bc 10f9 b935 a0bf dd3a 52b4 f4ac a1bf
00000250: 69b9 936f 2f24 a3bf f137 d52a 6a9b a4bf
00000260: 79b6 16e6 a412 a6bf d6e7 ca88 0c47 a0bf
00000270: 90b8 3279 0b04 87bf a42e c630 1b14 833f
00000280: b88a 5fed 2096 9e3f 0eff 2d21 1ad1 a93f
00000290: f760 e4da e8f1 a93f e3ae 6654 0231 a03f
000002a0: 00f4 a337 6fc0 893f 18a7 a5c4 5586 7abf
000002b0: 8acd 247e 6223 9abf c543 9d82 0dd2 a6bf
000002c0: d4a3 cb4e d548 b0bf dea5 48dc a328 b5bf
000002d0: cea7 c569 7208 babf bfa9 42f7 40e8 bebf
000002e0: a6a6 675d 8c52 c1bf e285 d343 3805 c2bf
000002f0: 2265 3f2a e4b7 c2bf 5e44 ab10 906a c3bf
00000300: 9a23 17f7 3b1d c4bf 7917 b616 e1a9 c4bf
00000310: 39b4 105e e6b9 c4bf f950 6ba5 ebc9 c4bf
00000320: b8ed c5ec f0d9 c4bf 788a 2034 f6e9 c4bf
00000330: 48f7 e54c 90f4 c4bf 84f4 f8eb 1bde c4bf
00000340: bff1 0b8b a7c7 c4bf faee 1e2a 33b1 c4bf
00000350: 36ec 31c9 be9a c4bf 4d62 3b6a 9685 c4bf
00000360: eb07 af53 388a c4bf 88ad 223d da8e c4bf
00000370: 2553 9626 7c93 c4bf c2f8 0910 1e98 c4bf
00000380: 5f9e 7df9 bf9c c4bf f808 db7e 0f97 c4bf
00000390: bfdc 2648 e290 c4bf 86b0 7211 b58a c4bf
000003a0: 4d84 beda 8784 c4bf 1458 0aa4 5a7e c4bf
000003b0: 9005 77e1 5e49 c4bf 6113 4a24 e40c c4bf
000003c0: 3321 1d67 69d0 c3bf 032f f0a9 ee93 c3bf
000003d0: d53c c3ec 7357 c3bf b190 1fdb 931a c3bf
000003e0: 1c8c 5759 95dd c2bf 8687 8fd7 96a0 c2bf
000003f0: f082 c755 9863 c2bf 5a7e ffd3 9926 c2bf
00000400: 8224 c7a1 c53b c2bf fd78 87d7 5078 c2bf
00000410: 78cd 470d dcb4 c2bf f521 0843 67f1 c2bf
00000420: 7076 c878 f22d c3bf 3c96 de42 430a c3bf
00000430: 22aa 7665 c6a1 c2bf 08be 0e88 4939 c2bf
00000440: ecd1 a6aa ccd0 c1bf d2e5 3ecd 4f68 c1bf
00000450: fda0 42c3 f65e c1bf 2885 3cdd 96b8 c1bf
00000460: 5369 36f7 3612 c2bf 7e4d 3011 d76b c2bf
00000470: ac31 2a2b 77c5 c2bf a360 b333 962b c3bf
00000480: 9a09 349f aca4 c3bf 90b2 b40a c31d c4bf
00000490: 875b 3576 d996 c4bf 8004 b6e1 ef0f c5bf
000004a0: ecd4 0ab6 e747 c5bf 24f9 201e efea c4bf
000004b0: 5d1d 3786 f68d c4bf 9641 4dee fd30 c4bf
000004c0: ce65 6356 05d4 c3bf f36f 465f a45a c3bf
000004d0: 89f3 eb78 3377 c2bf 2077 9192 c293 c1bf
000004e0: b7fa 36ac 51b0 c0bf 9bfc b88b c199 bfbf
000004f0: 3e5f b4c8 9df3 bdbf 4f80 1d0f 8641 bdbf
00000500: 60a1 8655 6e8f bcbf 72c2 ef9b 56dd bbbf
00000510: 83e3 58e2 3e2b bbbf 3ef6 1b00 8283 babf
00000520: 222a 7c0f 1a6a bbbf 075e dc1e b250 bcbf
00000530: f491 3c2e 4a37 bdbf d8c5 9c3d e21d bebf
00000540: bcf9 fc4c 7a04 bfbf eb8a 53b2 bbe2 c0bf
00000550: d3eb 670e 6e54 c2bf bb4c 7c6a 20c6 c3bf
00000560: a3ad 90c6 d237 c5bf 8b0e a522 85a9 c6bf
00000570: b863 f35d 1303 c6bf b97d 7c37 12f6 c4bf
00000580: ba97 0511 11e9 c3bf b0b1 8eea 0fdc c2bf
00000590: b1cb 17c4 0ecf c1bf df28 1a78 52cb c0bf
000005a0: 69a7 4540 7895 bfbf 14fd 5690 4b94 bdbf
000005b0: be52 68e0 1e93 bbbf 68a8 7930 f291 b9bf
000005c0: c15e f457 270e b8bf 97bf d02c d7cc b6bf
000005d0: 6c20 ad01 878b b5bf 3581 89d6 364a b4bf
000005e0: 0ae2 65ab e608 b3bf d4f1 c4c3 5153 b0bf
000005f0: 26a8 1fe4 c7f3 a8bf a46c b540 ec40 a1bf
00000600: 4462 963a 211c 93bf 005a 0f9e 4fb3 6dbf
00000610: d8eb 8f86 df3f 883f 18f0 def6 8876 9c3f
00000620: 22f5 3a15 9166 a63f 3872 06af dd91 ae3f
00000630: d0f7 6824 955e b33f b0ad 1eb2 8420 b63f
00000640: 8151 851c 5dab b63f 52f5 eb86 3536 b73f
00000650: 2499 52f1 0dc1 b73f f53c b95b e64b b83f
00000660: 24dc 2ec1 1c82 b83f 0f4a fa9a 7de0 b73f
00000670: f9b7 c574 de3e b73f e425 914e 3f9d b63f
00000680: c893 5c28 a0fb b53f 1ce8 1f14 441e b53f
00000690: 1221 629d 1740 b33f 095a a426 eb61 b13f
000006a0: ff25 cd5f 7d07 af3f ec97 5172 244b ab3f
000006b0: 1aec c73e af0f a83f 1156 559d 5395 a93f
000006c0: 08c0 e2fb f71a ab3f 002a 705a 9ca0 ac3f
000006d0: f693 fdb8 4026 ae3f 3af0 1857 d1ab af3f
000006e0: 65c8 0dff f58a b03f ad18 8f52 0340 b13f
000006f0: f668 10a6 10f5 b13f 3eb9 91f9 1daa b23f
00000700: 8609 134d 2b5f b33f 199a 09ff 636a b43f
00000710: ba5c 91b2 267e b53f 5b1f 1966 e991 b63f
00000720: fce1 a019 aca5 b73f 9da4 28cd 6eb9 b83f
00000730: 9cf6 5799 0a85 ba3f 4ee7 bcda dc79 bc3f
00000740: 01d8 211c af6e be3f 5a64 c3ae c031 c03f
00000750: b3dc 75cf 292c c13f b41f ad58 ad88 c13f
00000760: 66e2 afc9 f9a8 c13f 19a5 b23a 46c9 c13f
00000770: cb67 b5ab 92e9 c13f 7e2a b81c df09 c23f
00000780: 5e0e 49a9 55a2 c13f 3c70 af34 5aeb c03f
00000790: 23d2 15c0 5e34 c03f 1168 f896 c6fa be3f
000007a0: dd2b c5ad cf8c bd3f c527 ff42 583a bd3f
000007b0: d9e2 71b3 52db bd3f ee9d e423 4d7c be3f
000007c0: 0359 5794 471d bf3f 1814 ca04 42be bf3f
000007d0: 7586 22b3 fa03 c03f 0065 ed3b d4e4 bf3f
000007e0: 19bd 9511 b3c1 bf3f 3115 3ee7 919e bf3f
000007f0: 496d e6bc 707b bf3f bf2b 82ff ad64 bf3f
