velocity_residuals/azimuthal_velocity_residuals_v4046/azimuthal_velocity_residuals_v4046_nb1_gpmodel.pt (torch, 74809 bytes, 8 tensors)

polar_kernel.base_kernel.raw_lengthscale f4 [1, 2]
00000000: 802e b440 60af bf40
5.6306763 5.990158

cartesian_kernel.base_kernel.raw_lengthscale f4 [1, 2]
00000000: 0000 0000 0000 0000
0.0 0.0

sum_kernel.kernels.0.base_kernel.raw_lengthscale f4 [1, 2]
00000000: 802e b440 60af bf40
5.6306763 5.990158

sum_kernel.kernels.1.base_kernel.raw_lengthscale f4 [1, 2]
00000000: 0000 0000 0000 0000
0.0 0.0

covar_module.kernels.0.base_kernel.raw_lengthscale f4 [1, 2]
00000000: 802e b440 60af bf40
5.6306763 5.990158

covar_module.kernels.1.base_kernel.raw_lengthscale f4 [1, 2]
00000000: 0000 0000 0000 0000
0.0 0.0

train_x f4 [3000, 4]
00000000: 0000 e040 d153 fbbe e58c c540 8d2f 53c0
00000010: 6666 0242 4113 28c0 2feb e2c1 408c 80c1
00000020: 9a99 0542 5958 cfbf 2dc6 d1bf 6770 05c2
00000030: 242f 1541 d631 623e 2e8f 1141 e8be 0240
00000040: cdcc f441 5e36 b63f b1ad 8f40 8126 f241
00000050: 3333 c341 d153 fb3e aa26 ac41 8508 3841
00000060: 9a99 d940 1f12 b3bf 23ce 943f 7b65 d6c0
00000070: 3333 9341 bb7d 4740 da27 93c1 b032 e73e
00000080: cdcc 2c41 265f 0dc0 a9df cdc0 55cb 0ac1
00000090: 3333 cb41 23f0 993f e742 1241 8a95 bd41
000000a0: cdcc 8c41 c05b 2ec0 82b8 80c1 5e3b e4c0
000000b0: 9a99 c141 c05b 2e40 b3fd b0c1 d1e8 1c41
000000c0: 6666 b641 265f 0d40 a54f 59c1 4b81 9241
000000d0: 3333 2341 6314 1d3f 0a6e 0541 9cf1 bb40
000000e0: cdcc b441 d153 fb3f da60 0ac1 9409 a741
000000f0: cdcc 6c41 a716 873f c46f e940 5f09 4e41
00000100: 0000 1041 e63a 0a40 1501 a0c0 9776 ef40
00000110: 9a99 6941 a238 2040 18a1 3bc1 c627 0b41
00000120: cdcc 6c41 1556 e53f 5f88 4fc0 d80b 6741
00000130: 9a99 d141 d631 62be d681 cc41 c9b1 b7c0
00000140: 3333 c341 c7a8 0840 f2dc 50c1 59ea a441
00000150: 3333 9b41 e63a 8abe fb93 9541 4693 a5c0
00000160: 0000 f041 a5a7 13c0 952c a1c1 0ad4 b1c1
00000170: 6666 7641 922f f83f 355b b1c0 b1e3 6541
00000180: 9a99 e941 6583 10c0 bc31 94c1 4393 b4c1
00000190: cdcc fc41 4860 02c0 d052 63c1 9ece e1c1
000001a0: 9a99 d940 e25c 23c0 83ed b4c0 bfc8 71c0
000001b0: 3333 2341 d153 fbbf d5d0 79c0 f3c6 16c1
000001c0: cdcc ec40 c2ca 2140 a59a c1c0 f459 8840
000001d0: cdcc 4c41 28ce 80bf 9122 db40 a906 2dc1
000001e0: cdcc 8c41 c439 1540 b42c 42c1 aff2 4b41
000001f0: 9a99 b941 6583 903f 5db5 1e41 c9c7 a741
00000200: 0000 c041 67f2 83bf 5b6a 4541 14af a4c1
00000210: 3333 f340 a238 2040 0f57 c3c0 c3df 9040
00000220: 9a99 d141 db0f 493e 9692 cd41 5090 a340
00000230: 6666 f641 4860 0240 8791 5dc1 2917 dc41
00000240: 6666 0641 d8a0 553f da83 b440 ec2a c740
00000250: 0000 3041 4382 1b40 cd44 05c1 b6ea e540
00000260: 9a99 f940 06cd 0bc0 c3b8 8fc0 b511 ccc0
00000270: 6666 c640 a716 07c0 f8fe 4bc0 612c aac0
00000280: 3333 f341 d631 e2bf abc8 bdc0 e886 eec1
00000290: 0000 c040 db0f c9bc 32f1 bf40 04c8 16be
000002a0: 6666 9641 dfed af3f 91bb 6a40 9682 9341
000002b0: cdcc 9c41 18c5 d8bf 4d8d 19c0 ec9e 9bc1
000002c0: 0000 3041 a238 20c0 525d 0dc1 a8af d1c0
000002d0: 6666 ee41 6583 903f b7db 4b41 d482 d741
000002e0: cdcc b441 d4c2 6e3f a567 5741 4d38 9141
000002f0: 3333 2341 5cc7 c2bf 2220 003f e000 23c1
00000300: 6666 9641 a716 07c0 61a4 1ac1 9c00 81c1
00000310: 3333 5341 1a34 cc3f 04dc a5be ea22 5341
00000320: cdcc a441 a5a7 13c0 8858 5dc1 ad37 74c1
00000330: 0000 2041 e4cb 1640 3046 e2c0 3046 e240
00000340: 6666 6641 1f12 33c0 87ee 58c1 253d 9bc0
00000350: 6666 1641 5e36 b6bf ce8b b03f abc5 14c1
00000360: cdcc 0c41 e4cb 963f fe86 5740 0e15 0241
00000370: 6666 9641 e4cb 16be abc5 9441 ce8b 30c0
00000380: 9a99 d940 ff7f 31c0 ec04 cbc0 57a0 1cc0
00000390: 3333 8b41 265f 8dbf f557 fa40 74ac 78c1
000003a0: 6666 a641 db0f c9bf c08c b726 6666 a6c1
000003b0: 9a99 d141 1ca3 3fc0 d654 cfc1 a409 76c0
000003c0: 3333 1341 dfed 2fbf 0493 e340 f0c3 bac0
000003d0: 9a99 e141 e25c 233f 2034 b541 c863 8641
000003e0: 9a99 a141 5e36 36bf dbba 7441 001b 53c1
000003f0: 6666 c641 d8a0 55bf bf3c 8541 3401 93c1
7.0 -0.49087384 6.173449 -3.2997773 32.6 -2.6261752 -28.364836 -16.068481
33.4 -1.6198837 -1.6388603 -33.359768 9.324009 0.22089323 9.097456 2.042902
30.6 1.4235342 4.4899526 30.2688 24.4 0.49087384 21.518879 11.50208
6.8 -1.3989905 1.1625408 -6.6998878 18.4 3.117049 -18.394459 0.4515586
10.8 -2.2089324 -6.4335523 -8.674642 25.4 1.2026409 9.141334 23.698017
17.6 -2.72435 -16.090092 -7.132247 24.2 2.72435 -22.123877 9.80684
22.8 2.2089324 -13.581944 18.313131 10.2 0.6135923 8.339365 5.8732433
22.6 1.9634954 -8.648645 20.879677 14.8 1.0553788 7.2948933 12.877288
9.0 2.1598449 -5.000132 7.4832263 14.6 2.5034566 -11.72683 8.69721
14.8 1.7916895 -3.2426984 14.440392 26.2 -0.22089323 25.563396 -5.7404523
24.4 2.1353014 -13.053942 20.614428 19.4 -0.2699806 18.697256 -5.1742277
30.0 -2.3071072 -20.146769 -22.228535 15.4 1.9389517 -5.5423837 14.368089
29.2 -2.2580197 -18.524284 -22.571905 31.6 -2.0371265 -14.207718 -28.225887
6.8 -2.552544 -5.653993 -3.7778776 10.2 -1.9634954 -3.903371 -9.423572
7.4 2.5280004 -6.0501275 4.2609806 12.8 -1.0062914 6.8479695 -10.814126
17.6 2.3316507 -12.135914 12.746749 23.2 1.1290098 9.919278 20.972551
24.0 -1.030835 12.338466 -20.585487 7.6 2.5034566 -6.1043773 4.5273147
26.2 0.19634955 25.696575 5.1113663 30.8 2.0371265 -13.848029 27.511309
8.4 0.83448553 5.641095 6.2239895 11.0 2.4298255 -8.329297 7.184901
7.8 -2.1843886 -4.491304 -6.3771615 6.2 -2.1107576 -3.187437 -5.3179173
30.4 -1.7671459 -5.9307456 -29.815872 6.0 -0.024543693 5.998193 -0.14724737
18.8 1.3744467 3.6676981 18.438763 19.6 -1.6935148 -2.3992493 -19.452599
11.0 -2.5034566 -8.835283 -6.5526924 29.8 1.1290098 12.741141 26.93888
22.6 0.93266034 13.462804 18.15249 10.2 -1.521709 0.5004903 -10.187714
18.8 -2.1107576 -9.665132 -16.125298 13.2 1.59534 -0.3239442 13.196024
20.6 -2.3071072 -13.834114 -15.263593 10.0 2.3561945 -7.071068 7.071068
14.4 -2.797981 -13.558234 -4.851214 9.4 -1.4235342 1.3792665 -9.298259
8.8 1.1780972 3.3676143 8.13014 18.8 -0.14726216 18.596518 -2.758533
6.8 -2.7734373 -6.344351 -2.4472864 17.4 -1.1044662 7.823237 -15.542103
20.8 -1.5707964 1.2736326e-15 -20.8 26.2 -2.9943304 -25.916424 -3.8443384
9.2 -0.6872234 7.1116962 -5.836418 28.2 0.638136 22.650452 16.798721
20.2 -0.7117671 15.295619 -13.194092 24.8 -0.83448553 16.654661 -18.375587

train_y f4 [3000]
00000000: addd debc 0377 16c0 bd37 633b d52d d13b
00000010: 052e 26bc 1a44 3cbb bc8d 093c 3b61 0f3c
00000020: a4f8 323b 4b50 4a3c 8b95 8ebc 22d9 efbb
00000030: c6e0 3b3b d723 48bb a98f 583a 09e0 debb
00000040: 9264 93bb 3e40 3ebb 165e 6dbc 116d a3b9
00000050: ad1a bc3b 1b2e acbb 4653 f13c ba78 a1bc
00000060: 8017 7b3c b9ee 63bc 4744 113d 19c7 ad3c
00000070: 2c9f a1bc de42 d8bc f754 bdbc ccdd e0bb
00000080: 1b66 b4bc 95c7 1cbc 8041 453a 1060 d6bb
00000090: 3215 3cba 27c5 773c 3bfe 193d 441d 9cbb
000000a0: 76e5 98bc 4c0d 913a 7eb9 8c3c 1f35 2fbc
000000b0: f262 33bc df52 0b3c e0aa 893b 7b79 d4ba
000000c0: 11dd 753c 6c83 063c 2504 1b3c a081 933c
000000d0: 10ca 27bd 79e2 343b 5f3a 313b 89db cfbb
000000e0: 60a5 e13c 6ccf b4bb 0223 bc3b 62c5 9abc
000000f0: 1372 babc b1c2 253c 7c4e 70ba f69e b2bc
00000100: d428 663c d8fa 9abc 2490 59bb 09f5 663c
00000110: b06a 983c 08a9 a1bc 04bd 633a ca00 8f3a
00000120: 3eee d0ba d4c8 da3b d03b c93a d636 47bc
00000130: a1d9 6d3c 1a3a 363b d6ce b73b 1cf0 b03c
00000140: 7135 98bc 9462 55bc 466b b7bb d182 c0bc
00000150: 5036 853c 8ba3 a93c 797f 85ba 54e4 6dbb
00000160: 8f45 debc 8f8b 7b3c 0d2b 33bc c59e 483c
00000170: 4c8b 0dbc 751d 38bc 3c77 87bb f1f4 353c
00000180: 1454 bebb 96cc f73c 9fe0 c03c 6209 58bc
00000190: 98d7 83bc 0d99 cc3a a1e1 4d3c 4e00 9dbc
000001a0: 6288 90bc fb30 11bc c177 2f3c d67d b0bc
000001b0: ee56 c5bc 8af2 9439 5fee ebbb 5ea7 9b3b
000001c0: 1f41 1a3c bfed 78bc da61 b83c 0457 063c
000001d0: 3b12 9fbc 8a04 f93b 7f2d 103d 119c 32bc
000001e0: dc9a 0438 9d90 edba dc4d eb3c d79b 493c
000001f0: b562 023d 7065 18bd 7f57 633a 768f d13c
00000200: f6ac 50bc 3db1 f73c 8fe5 adbc 67dc 15bc
00000210: f3ef 2b3c 444b fd3b 1e79 493b 46f0 ea3a
00000220: b28a cab9 4a56 b43b ccd0 ab3b ed1e 2cbc
00000230: 30ea 8d3c 962a 3cbc 4458 0f3c 5b3c ce3b
00000240: 1156 a7ba b316 25bd 1c96 4a3c ee84 1fbb
00000250: c966 8e3c 1aaf 92bc 7082 35bc 8d62 afbb
00000260: ca06 84bc ebd1 553d 1f3d 8dbb 44cb b9bb
00000270: 86a6 bebc db5c e53b fafb 793b 57f2 f1ba
00000280: 0a4d 93bb a101 81bb ef49 ffbb a4b7 133d
00000290: 4871 733a 3d3d 8bbb 8d4d fc3c 6ead 01bc
000002a0: fde3 ebbb c217 4c3b 4f80 3d3c c3f2 043c
000002b0: a4f5 173d bb12 ed3a 31c1 8b3b 6d1a d0bb
000002c0: 5113 25bb bc4e b03c 9b98 783c d5f3 65bb
000002d0: 9684 323c 38e3 16bc 43c3 1c3c 27c5 79bb
000002e0: a980 20bd a181 87bc 1b07 523c d0fa 57ba
000002f0: 669a b2bc 485c e13c a994 963c 6bea 093c
00000300: 434f e1bb ebff a93c 5fb2 823b bbf8 86bc
00000310: d1e4 a73c 63c4 ba3b 1520 43bc 6ba2 423c
00000320: ec66 ed3b 85c8 5dbb 7ca6 fc3b 7ab3 84bc
00000330: 1139 693c 530b b03c 2771 163b 741d 19bc
00000340: fd08 03bc fce4 81bb fa87 08bc 9ce3 03bd
00000350: 6006 fb3c 9fe2 b5bb a8f8 943c c42d 5d3c
00000360: db98 1ebd 928c d7bb 76f5 3238 5dfe 3ebc
00000370: b0d2 ebbb d0ac 073c b728 1d3d a8d3 85bb
00000380: bcda 573b 3299 86bb 5530 d9bb 1cad d33c
00000390: 1e51 cbb9 2188 ce3c 4dbd bbbb 892e b5bb
000003a0: 9e60 48bb 39bb e6bb 99a6 8abb 2f7f 53ba
000003b0: d2ca 98bc 1e3b e6bb 728a 29bb 6bee 67bb
000003c0: af75 1abc 627c bbba 0fdc 0f3d db40 a4bc
000003d0: ad37 0d3d 1319 2cbc b587 aa3b 7678 843c
000003e0: 5566 e53a 9e36 b93c 000e 723b a154 e43b
000003f0: fdb9 f4bb b600 fd3c d223 dbbb a215 99bc
-0.027205313 -2.351014 0.0034670674 0.0063836374 -0.010142808 -0.0028727115 0.0083956085 0.008751209
0.0027308846 0.012348245 -0.017405292 -0.0073195854 0.002866791 -0.003053894 0.0008261153 -0.0068016094
-0.004498073 -0.002902999 -0.014487764 -0.00031171044 0.0057404847 -0.0052545196 0.029458653 -0.019710887
0.015325427 -0.013911896 0.035465505 0.021213101 -0.01972922 -0.026399072 -0.023111803 -0.0068623777
-0.022021344 -0.009569068 0.0007524714 -0.0065422133 -0.0007174789 0.015122688 0.03759597 -0.004764231
-0.018664103 0.0011066585 0.017178293 -0.010693817 -0.010948883 0.008503645 0.004201278 -0.001621052
0.01500632 0.008210044 0.009461437 0.018006146 -0.040964186 0.0027600809 0.0027042849 -0.0063433093
0.027544677 -0.0055178907 0.005741478 -0.018892948 -0.022759473 0.010117219 -0.00091669685 -0.021804314
0.01404782 -0.01891844 -0.0033197487 0.014096507 0.01860556 -0.01973392 0.00086875283 0.0010910269
-0.0015940142 0.0066767726 0.0015352909 -0.01215907 0.014517219 0.0027805627 0.0056093736 0.021598868
-0.01858017 -0.013023991 -0.005597505 -0.023499878 0.01626125 0.020707866 -0.0010185085 -0.0036299424
-0.027132777 0.015353098 -0.010935557 0.012244885 -0.008639168 -0.011237492 -0.004134087 0.011105762
-0.0058083627 0.030248921 0.023544608 -0.013185831 -0.016094014 0.0015609578 0.012566001 -0.019165184
-0.017643157 -0.0088617755 0.010709704 -0.021544378 -0.024089303 0.00028409465 -0.007200047 0.0047501763
0.00941494 -0.015193402 0.022507597 0.008199457 -0.019417873 0.007599418 0.03519964 -0.010901467
3.1615476e-05 -0.0018124763 0.02872365 0.0123052215 0.031832416 -0.037206113 0.0008672401 0.025581103
-0.01273655 0.030235881 -0.021227626 -0.009146786 0.01049422 0.0077299196 0.0030742357 0.001792439
-0.00038631778 0.0055034505 0.0052433964 -0.01050542 0.017323583 -0.011484763 0.0087490715 0.006293816
-0.0012766739 -0.04030485 0.01236489 -0.0024340707 0.017382996 -0.01790576 -0.011078462 -0.0053523243
-0.016116519 0.052202147 -0.0043102647 -0.005669983 -0.023272764 0.0069995946 0.0038144575 -0.0018459064
-0.0044952678 -0.0039369618 -0.007790796 0.036063805 0.00092865946 -0.0042492435 0.030798698 -0.007914884
-0.007198809 0.003114209 0.011566236 0.0081145195 0.037099496 0.0018087247 0.0042649736 -0.0063508064
-0.0025188515 0.021521918 0.015173103 -0.0035087962 0.010895869 -0.009209447 0.009568038 -0.0038111897
-0.0391852 -0.016541304 0.012819077 -0.0008238973 -0.021802139 0.027509823 0.018381434 0.008417706
-0.006875904 0.020751914 0.0039885486 -0.016476026 0.02049485 0.0056996807 -0.011909504 0.011879544
0.0072449353 -0.0033841443 0.007710276 -0.016198862 0.014234797 0.021489775 0.0022955628 -0.009345401
-0.007997748 -0.0039640646 -0.008333201 -0.032199487 0.030642688 -0.005550697 0.018184975 0.013499681
-0.038719993 -0.0065780366 4.266711e-05 -0.011657325 -0.0071967468 0.008280948 0.038368907 -0.0040840693
0.0032936772 -0.004107618 -0.006628076 0.02583938 -0.00038779614 0.025211396 -0.0057293535 -0.005529229
-0.0030575166 -0.0070413616 -0.004231286 -0.0008067963 -0.0186514 -0.0070260903 -0.0025869873 -0.003538991
-0.009427472 -0.0014304037 0.035121974 -0.020050457 0.034476925 -0.010504025 0.005204166 0.016170722
0.0017501811 0.022609051 0.0036934614 0.0069680964 -0.0074684606 0.030884128 -0.0066876197 -0.018687073
