velocity_residuals/azimuthal_velocity_residuals_aatau_dbell_b0p30/azimuthal_velocity_residuals_aatau_dbell_b0p30_gridded.npy (npy, 109096 bytes, 1 tensors)

array f8 [53, 257]
00000000: dcd7 8173 4694 ca3f 3b1c 8b25 cdee ca3f
00000010: 9a60 94d7 5349 cb3f faa4 9d89 daa3 cb3f
00000020: 59e9 a63b 61fe cb3f b82d b0ed e758 cc3f
00000030: 405a 2cd4 0e29 c93f 4ef2 b870 529c c53f
00000040: 4a8a 450d 960f c23f b144 a453 b305 bd3f
00000050: ce74 bd8c 3aec b53f 56b2 b1fc 8c38 b23f
00000060: d1fe 6fc5 0397 ae3f f598 7c91 edbc a83f
00000070: fc32 895d d7e2 a23f 409a 2b53 8211 9a3f
00000080: 7ea2 67a2 6e58 9e3f 733e 74fa bd66 a43f
00000090: a6ab b4a3 44a1 a93f f418 f54c cbdb ae3f
000000a0: 14c3 1afb 280b b23f 6a70 927a a787 bc3f
000000b0: a275 d7e0 83d6 c53f 10b3 6504 3469 cd3f
000000c0: 3ef8 f913 f27d d23f 0817 c125 4a47 d63f
000000d0: b8c3 a760 1a30 d63f f947 7ed8 faba d23f
000000e0: 7498 a9a0 b68b ce3f d3a0 5690 77a1 c73f
000000f0: 55a9 0380 38b7 c03f 4ebd 387f a12f bb3f
00000100: 8a42 b116 8f81 be3f e3e3 1457 bee9 c03f
00000110: 8126 d122 b592 c23f 1f69 8dee ab3b c43f
00000120: 2867 b0f8 889e c63f 22f3 a705 b85b ca3f
00000130: 1c7f 9f12 e718 ce3f 8b85 cb0f 0beb d03f
00000140: 924b 4796 a2c9 d23f 444a 2a9a ace3 d43f
00000150: 4aa3 d3d7 2daa d73f 50fc 7c15 af70 da3f
00000160: 5655 2653 3037 dd3f 5cae cf90 b1fd df3f
00000170: ed5f 8276 b21b e13f e4ce 7691 08d0 e03f
00000180: dd3d 6bac 5e84 e03f d6ac 5fc7 b438 e03f
00000190: 9d37 a8c4 15da df3f c423 134f ac32 df3f
000001a0: f744 ee9b f0b6 dd3f 2f66 c9e8 343b dc3f
000001b0: 6687 a435 79bf da3f 9aa8 7f82 bd43 d93f
000001c0: d2c9 5acf 01c8 d73f 99f5 abb3 c85b d53f
000001d0: e651 3bc4 03ea d23f 39ae cad4 3e78 d03f
000001e0: 1815 b4ca f30c cc3f b2cd d2eb 6929 c73f
000001f0: 1763 6806 70f7 c43f 28db 823f 811f c33f
00000200: 3c53 9d78 9247 c13f a396 6f63 47df be3f
00000210: c486 a4d5 692f bb3f 106b cad3 7ce6 b83f
00000220: faae a9df 16fc b63f e9f2 88eb b011 b53f
00000230: d836 68f7 4a27 b33f c27a 4703 e53c b13f
00000240: 064e 9885 4394 b23f 0cf8 b558 5e53 b53f
00000250: 19a2 d32b 7912 b83f 1e4c f1fe 93d1 ba3f
00000260: 24f6 0ed2 ae90 bd3f e254 683c 5da0 bf3f
00000270: f7e8 fcef e79e c03f 7ea7 c541 a16d c13f
00000280: 0466 8e93 5a3c c23f 8a24 57e5 130b c33f
00000290: 4940 91a9 1b52 c13f 4620 14e5 e862 ba3f
000002a0: 22c0 0577 9a21 b23f 00c0 ee11 98c0 a33f
000002b0: c0fd 8fae d9ef 793f fac6 9b80 0235 9abf
000002c0: 759f 4b5a bf38 adbf e0ad 24ba 7eab b6bf
000002d0: dc8b 23c7 9dba bebf ec34 116a de64 c3bf
000002e0: 4f0d f1b4 bdbd c3bf 822e a09b 9c00 b9bf
000002f0: 3884 bc9a 7b0b a5bf 0050 1d07 08a9 8f3f
00000300: 1c96 25cf ff6f b23f ec4c ba86 edb9 bb3f
00000310: cae6 96d8 8100 b43f 0001 e754 2c8e a83f
00000320: 7469 40f1 a936 923f 285e 9a8e 095e 89bf
00000330: c06d b505 e379 a6bf ac64 6749 8f65 b5bf
00000340: ab12 f40f 2d8e bfbf 3c60 406b 65db c4bf
00000350: 22b7 864e b4ef c9bf e70e a6a8 93a6 cebf
00000360: a6be ccad 641b ccbf 646e f3b2 3590 c9bf
00000370: 161e 1ab8 0605 c7bf d6cd 40bd d779 c4bf
00000380: 947d 67c2 a8ee c1bf 0a21 175b 9952 c0bf
00000390: 4217 394b a783 bdbf 5eec 43e0 1b62 babf
000003a0: 8bc1 4e75 9040 b7bf b896 590a 051f b4bf
000003b0: be5d ea7b 9d8e bcbf 3897 c425 376c c3bf
000003c0: 92ff 938d 1f91 c8bf 0568 63f5 07b6 cdbf
000003d0: 3068 992e 786d d1bf ab6f 9100 b20c d2bf
000003e0: e5ba 78d3 f515 d2bf 1f06 60a6 391f d2bf
000003f0: 5a51 4779 7d28 d2bf 949c 2e4c c131 d2bf
00000400: 9d2a df39 f933 d2bf 3541 82bf d032 d2bf
00000410: ce57 2545 a831 d2bf 666e c8ca 7f30 d2bf
00000420: ff84 6b50 572f d2bf 392e 511c 052d d2bf
00000430: a637 6508 de29 d2bf 1441 79f4 b626 d2bf
00000440: 814a 8de0 8f23 d2bf ef53 a1cc 6820 d2bf
00000450: 3caa fa5d 2b50 d2bf 304b 44b7 e4b4 d2bf
00000460: 24ec 8d10 9e19 d3bf 178d d769 577e d3bf
00000470: 0d2e 21c3 10e3 d3bf a502 7284 b86e d4bf
00000480: f123 d76e 7735 d5bf 3d45 3c59 36fc d5bf
00000490: 8866 a143 f5c2 d6bf d887 062e b489 d7bf
000004a0: 2388 0d8f f529 d8bf 1b0e 4c41 2e72 d8bf
000004b0: 1394 8af3 66ba d8bf 0a1a c9a5 9f02 d9bf
000004c0: 02a0 0758 d84a d9bf 5b20 04bb 9b79 d9bf
000004d0: a396 5b43 5249 d9bf ea0c b3cb 0819 d9bf
000004e0: 3183 0a54 bfe8 d8bf 79f9 61dc 75b8 d8bf
000004f0: ac88 2ba2 6b5f d8bf ff4d 682f a0d6 d6bf
00000500: 5213 a5bc d44d d5bf a5d8 e149 09c5 d3bf
00000510: f89d 1ed7 3d3c d2bf d948 6b6e efa6 d0bf
00000520: 5ff0 0722 aa60 cabf 0c4f 3967 7573 c3bf
00000530: e65a d558 810c b9bf 8430 70c6 2f64 a6bf
00000540: 2053 2993 8c42 853f ee42 ca83 6e1a aebf
00000550: e569 ea51 5e86 c1bf 0f43 e202 2186 cbbf
00000560: 1c0e edd9 f1c2 d2bf b1fa 6832 d3c2 d7bf
00000570: 816c 56c3 7915 d5bf 019e f803 31f0 d0bf
00000580: 049f 3589 d095 c9bf b101 7a0a 3f4b c1bf
00000590: 64c9 7c17 5b01 b2bf b183 40b6 0a7c aabf
000005a0: bf7f 4571 d5fc a8bf cd7b 4a2c a07d a7bf
000005b0: db77 4fe7 6afe a5bf e873 54a2 357f a4bf
000005c0: 18ac 78c1 2412 a4bf 673d 2d66 6e36 a4bf
000005d0: b6ce e10a b85a a4bf 0760 96af 017f a4bf
000005e0: 56f1 4a54 4ba3 a4bf 4c69 f63c 7ef2 a5bf
000005f0: 9b72 3985 072c a8bf ea7b 7ccd 9065 aabf
00000600: 3885 bf15 1a9f acbf 888e 025e a3d8 aebf
00000610: 4abf c71d 2b6d b0bf a7ca 0c97 3a4e b1bf
00000620: 05d6 5110 4a2f b2bf 63e1 9689 5910 b3bf
00000630: c9ec db02 69f1 b3bf d4f2 ce82 9782 b4bf
00000640: 109a bd2c 6e8e b4bf 4d41 acd6 449a b4bf
00000650: 89e8 9a80 1ba6 b4bf c58f 892a f2b1 b4bf
00000660: ebdb f0b8 19b6 b4bf dfb3 c4ae a8a6 b4bf
00000670: d38b 98a4 3797 b4bf c763 6c9a c687 b4bf
00000680: ba3b 4090 5578 b4bf b09d 6e4f 9bba b5bf
00000690: 389f 4ca2 b6a8 bcbf 6050 95fa 68cb c1bf
000006a0: 2451 04a4 7642 c5bf e851 734d 84b9 c8bf
000006b0: b135 c01f ae82 cbbf d09d 1950 cee1 c7bf
000006c0: f005 7380 ee40 c4bf 0f6e ccb0 0ea0 c0bf
000006d0: 5dac 4bc2 5dfe b9bf 54a1 6387 4bbf b2bf
000006e0: 104c 6e02 3f72 aebf 7755 15f6 e665 a7bf
000006f0: de5e bce9 8e59 a0bf 8ad0 c6ba 6d9a 92bf
00000700: 608d 5388 f606 72bf b444 8e3e c9e8 783f
00000710: 6168 2e21 d6a0 903f 953f b9f2 7907 9b3f
00000720: 640b 22e2 0eb7 a23f fe76 e7ca 60ea a73f
00000730: 9078 693e 908d aa3f 8a38 e933 aa9d ac3f
00000740: 85f8 6829 c4ad ae3f 405c 740f ef5e b03f
00000750: 3d3c 340a fc66 b13f bcd3 095d 01c5 b33f
00000760: bfeb b66a 70a5 b63f c203 6478 df85 b93f
00000770: c61b 1186 4e66 bc3f c833 be93 bd46 bf3f
00000780: 19f0 a931 5cbd c03f 078a 7c3c eba4 c13f
00000790: ed23 4f47 7a8c c23f d2bd 2152 0974 c33f
000007a0: b857 f45c 985b c43f 3a0f 7915 0505 c53f
000007b0: c6c4 11c4 1679 c53f 527a aa72 28ed c53f
000007c0: de2f 4321 3a61 c63f 6ae5 dbcf 4bd5 c63f
000007d0: 0c54 b5f0 4655 c73f 7fc6 cd8e 1ce4 c73f
000007e0: ec38 e62c f272 c83f 59ab feca c701 c93f
000007f0: c71d 1769 9d90 c93f b003 e78c 28ed c93f
0.20765 0.21041263898061566 0.2131752779612313 0.215937916941847 0.21870055592246265 0.2214631949030783 0.19656548843404842 0.16883306983972307
0.14110065124539722 0.11336823265107189 0.08563581405674656 0.0711753956727049 0.059745900965933914 0.048316406259162926 0.03688691155239174 0.02545741684562075
0.029634216940311202 0.039846360037810856 0.0500585031353105 0.06027064623281034 0.07048278933030999 0.11144491903763912 0.17060898283572806 0.22977304663381704
0.28893711043190595 0.348101174229996 0.3466859764003476 0.29266234533235963 0.23863871426437167 0.18461508319638273 0.13059145212839476 0.10619553905484233
0.1191644125367565 0.13213328601867066 0.14510215950058483 0.158071032982499 0.17671310561200326 0.20592403675245757 0.23513496789291188 0.2643458990333662
0.29355683017382106 0.32639613204188245 0.3697619064028471 0.4131276807638118 0.45649345512477646 0.49985922948574113 0.5346309961923886 0.5253947106452554
0.5161584250981225 0.5069221395509895 0.4976858540038565 0.4874678394522187 0.46429076411830245 0.44111368878438645 0.4179366134504704 0.3947595381165542
0.3715824627826382 0.3337270502668957 0.2955331245732665 0.2573391988796377 0.21914527318600885 0.18095134749237968 0.16380119622115139 0.14939895249491397
0.13499670876867664 0.12059446504243936 0.10619222131620193 0.09726696177169125 0.08978407822149484 0.0823011946712985 0.07481831112110215 0.06733542757090574
0.07257482539744595 0.08330335298339281 0.09403188056933977 0.10476040815528662 0.11548893574123348 0.12354071354669174 0.12984942644272454 0.13615813933875737
0.14246685223479016 0.14877556513082296 0.13531823901803566 0.10307174294223484 0.07082524686643457 0.03857875079063433 0.0063322547148340624 -0.025592841243400756
-0.05707357384909432 -0.08855430645478846 -0.12003503906048202 -0.15151577166617558 -0.15422793707885282 -0.09766558455901911 -0.04110323203918437 0.015459120480649347
0.07202147300048306 0.10830578364611981 0.07813273942783919 0.047959695209558006 0.017786650991277367 -0.012386393227003259 -0.04389867253004409 -0.08358092825018798
-0.12326318397033258 -0.16294543969047648 -0.20262769541062037 -0.23945852026746836 -0.21958597647016126 -0.19971343267285413 -0.17984088887554667 -0.1599683450782396
-0.14009580128093246 -0.12752072284479993 -0.11529012285708709 -0.103059522869374 -0.09082892288166115 -0.0785983228939483 -0.1115511348274287 -0.15173997253548932
-0.19192881024354996 -0.2321176479516113 -0.27230648565967197 -0.2820248609111739 -0.2825903477814065 -0.2831558346516391 -0.2837213215218718 -0.2842868083921044
-0.2844222130922079 -0.28435152723342877 -0.2842808413746497 -0.2842101555158706 -0.2841394696570915 -0.28399780049651074 -0.2838053781496178 -0.28361295580272494
-0.283420533455832 -0.28322811110893914 -0.2861431520238147 -0.29229085824151735 -0.29843856445922 -0.3045862706769226 -0.3107339768946254 -0.3192578595554017
-0.3313883383203225 -0.3435188170852433 -0.355649295850164 -0.36777977461508504 -0.3775609871864864 -0.38196903587979286 -0.3863770845730993 -0.39078513326640574
-0.3951931819597122 -0.3980473829583439 -0.3951001794615456 -0.3921529759647472 -0.3892057724679488 -0.38625856897115046 -0.38082400166434627 -0.35684971456177544
-0.3328754274592046 -0.3089011403566338 -0.284926853254063 -0.26018892081368744 -0.20607496892614827 -0.1519610170386091 -0.09784706515106797 -0.04373311326352883
0.010380838624010347 -0.05879540785566016 -0.136913099286928 -0.21503079071819584 -0.29314848214946365 -0.3712661735807315 -0.32943576885163145 -0.2646601237088078
-0.19988447856598424 -0.1351088334231583 -0.07033318828033469 -0.05172761416202521 -0.048803968503079435 -0.04588032284413366 -0.042956677185187885 -0.0400330315262421
-0.03920092450820095 -0.039477777455085676 -0.0397546304019704 -0.04003148334885514 -0.04030833629573986 -0.04286570066615755 -0.047210917484993696 -0.05155613430382984
-0.055901351122665977 -0.06024656794150213 -0.06416577794129555 -0.06759992778533307 -0.0710340776293706 -0.07446822747340813 -0.07790237731744577 -0.08011767333568837
-0.08029831497479045 -0.08047895661389255 -0.08065959825299464 -0.08084023989209672 -0.08090363278539285 -0.08066801325612925 -0.08043239372686566 -0.08019677419760206
-0.07996115466833845 -0.08487864197979067 -0.11194936239610065 -0.13902008281241063 -0.1660908032287206 -0.1931615236450306 -0.2149255423577592 -0.1865785494912715
-0.15823155662478383 -0.12988456375829613 -0.10153757089180844 -0.07323143058204568 -0.05946537880586089 -0.0456993270296761 -0.03193327525349131 -0.018167223477306517
-0.0044011717011217255 0.006081377135062006 0.01623854234240019 0.026395707549738374 0.036552872757076554 0.04671003796441474 0.051861293429042665 0.05589038737945014
0.05991948132985762 0.0639485752802651 0.06797766923067257 0.07722481271214482 0.08846190076194115 0.09969898881173747 0.11093607686153381 0.12217316491133012
0.13077881264678196 0.1378454251617571 0.14491203767673203 0.15197865019170692 0.15904526270668184 0.1642156939361657 0.1677578408594284 0.17129998778269112
0.17484213470595383 0.17838428162921655 0.18228995087943678 0.18664891217081345 0.19100787346218995 0.19536683475356645 0.19972579604494298 0.20255
