velocity_residuals/azimuthal_velocity_residuals_sycha_dbell/azimuthal_velocity_residuals_sycha_dbell_nb1_gpmodel.pt (torch, 74472 bytes, 8 tensors)

polar_kernel.base_kernel.raw_lengthscale f4 [1, 2]
0	0x401b308b	2.4248378
1	0x3f8cbfac	1.0995994

cartesian_kernel.base_kernel.raw_lengthscale f4 [1, 2]
0	0x00000000	0.0
1	0x00000000	0.0

sum_kernel.kernels.0.base_kernel.raw_lengthscale f4 [1, 2]
0	0x401b308b	2.4248378
1	0x3f8cbfac	1.0995994

sum_kernel.kernels.1.base_kernel.raw_lengthscale f4 [1, 2]
0	0x00000000	0.0
1	0x00000000	0.0

covar_module.kernels.0.base_kernel.raw_lengthscale f4 [1, 2]
0	0x401b308b	2.4248378
1	0x3f8cbfac	1.0995994

covar_module.kernels.1.base_kernel.raw_lengthscale f4 [1, 2]
0	0x00000000	0.0
1	0x00000000	0.0

train_x f4 [3000, 4]
0	0x4189999a	17.2
1	0xbfeb9e94	-1.8407769
2	0xc092cc78	-4.5874596
3	0xc1849d97	-16.576948
4	0x41166666	9.4
5	0xbfeb9e94	-1.8407769
6	0xc0207453	-2.5070999
7	0xc110f3b1	-9.059495
8	0x41900000	18.0
9	0x400ef145	2.233476
10	0xc1312fcb	-11.074168
11	0x41630b35	14.190236
12	0x40cccccd	6.4
13	0xbfd5a0d8	-1.6689711
14	0xbf20975e	-0.6273097
15	0xc0cbd057	-6.369182
16	0x40cccccd	6.4
17	0xbf5be957	-0.85902923
18	0x4085c511	4.180306
19	0xc09b138d	-4.8461366
20	0x4184cccd	16.6
21	0xc03c7edd	-2.9452431
22	0xc1823f90	-16.281036
23	0xc04f4393	-3.2384994
24	0x4181999a	16.2
25	0xbf29a560	-0.6626797
26	0x414c56e3	12.771213
27	0xc11f77d1	-9.966752
28	0x41366666	11.4
29	0xbfb6365e	-1.4235342
30	0x3fd61bef	1.6727275
31	0xc1346d01	-11.276612
32	0x41466666	12.4
33	0x00000000	0.0
34	0x41466666	12.4
35	0x00000000	0.0
36	0x40eccccd	7.4
37	0x3f8d5f26	1.1044662
38	0x4054ef99	3.3271239
39	0x40d383f9	6.60986
40	0x41666666	14.4
41	0xc00d5f26	-2.2089324
42	0xc1093fc6	-8.57807
43	0xc1390f1c	-11.566189
44	0x419b3333	19.4
45	0x3f1d1463	0.6135923
46	0x417dc740	15.861145
47	0x4132bb1a	11.170679
48	0x4189999a	17.2
49	0xbf5be957	-0.85902923
50	0x4133c0d0	11.234573
51	0xc1506246	-13.023993
52	0x40d9999a	6.8
53	0x3efb53d1	0.49087384
54	0x40bfe7f4	5.9970646
55	0x404d26e0	3.2054977
56	0x417ccccd	15.8
57	0xc037c87e	-2.871612
58	0xc173a481	-15.227662
59	0xc086d998	-4.2140617
60	0x418ccccd	17.6
61	0xbfeb9e94	-1.8407769
62	0xc096366f	-4.6941447
63	0xc187b31e	-16.96246
64	0x41033333	8.2
65	0x3f0a3ae6	0.5399612
66	0x40e11168	7.033375
67	0x4086e68b	4.2156425
68	0x40eccccd	7.4
69	0xc02feddf	-2.7488935
70	0xc0dac651	-6.8367085
71	0xc0353d27	-2.8318574
72	0x40c00000	6.0
73	0xbf235ce2	-0.638136
74	0x409a3742	4.8192453
75	0xc064bfa0	-3.5741959
76	0x40e00000	7.0
77	0xbe16cbe4	-0.14726216
78	0x40dd9356	6.9242353
79	0xbf837873	-1.0271133
80	0x414ccccd	12.8
81	0xbfd8c518	-1.6935148
82	0xbfc88ec2	-1.5668566
83	0xc14b4283	-12.703738
84	0x41600000	14.0
85	0x403e10fd	2.969787
86	0xc15cb3c3	-13.793887
87	0x40192e8e	2.3934665
88	0x41933333	18.4
89	0xc00716a7	-2.1107576
90	0xc1175a13	-9.459491
91	0xc17c83eb	-15.782207
92	0x41566666	13.4
93	0x3facc9a0	1.3499031
94	0x403be6b7	2.9359567
95	0x415130c7	13.074409
96	0x4184cccd	16.6
97	0xc044597c	-3.0679617
98	0xc18470af	-16.555021
99	0xbf9c4f5b	-1.2211717
100	0x41980000	19.0
101	0xc021cac2	-2.5280004
102	0xc1788bb8	-15.534111
103	0xc12f0bb2	-10.940355
104	0x41333333	11.2
105	0x400ef145	2.233476
106	0xc0dc7fbf	-6.890594
107	0x410d458d	8.82948
108	0x41333333	11.2
109	0x40058487	2.0862138
110	0xc0b0a79b	-5.5204597
111	0x411beb6a	9.744974
112	0x411ccccd	9.8
113	0xbfc90fdb	-1.5707964
114	0x262cf5dd	6.0007694e-16
115	0xc11ccccd	-9.8
116	0x41833333	16.4
117	0xc01d1463	-2.4543693
118	0xc14ad683	-12.677371
119	0xc12676fd	-10.40405
120	0x41980000	19.0
121	0xc0058487	-2.0862138
122	0xc115d74f	-9.365066
123	0xc18440d3	-16.531652
124	0x41500000	13.0
125	0x401ea683	2.478913
126	0xc123f9df	-10.248504
127	0x40ffefb4	7.9980106
128	0x41066666	8.4
129	0x4000ce28	2.0125828
130	0xc065da87	-3.5914629
131	0x40f2fe09	7.59351
132	0x40e00000	7.0
133	0xbf03f267	-0.5154175
134	0x40c2e645	6.090609
135	0xc05cd182	-3.4502873
136	0x41866666	16.8
137	0x3fc5eb9b	1.5462526
138	0x3ed31805	0.41229263
139	0x41865c0a	16.79494
140	0x41800000	16.0
141	0x3fdf0d97	1.7426022
142	0xc02f10a2	-2.7353902
143	0x417c3b28	15.764442
144	0x40d33333	6.6
145	0xc03c7edd	-2.9452431
146	0xc0cf2450	-6.4731827
147	0xbfa4cff3	-1.2875961
148	0x41700000	15.0
149	0x3fe231d6	1.7671459
150	0xc03b4966	-2.926355
151	0x416b6373	14.71178
152	0x40c66666	6.2
153	0xbf8a3ae6	-1.0799224
154	0x403b0cdc	2.9226599
155	0xc0aef922	-5.4679117
156	0x41600000	14.0
157	0xbfbfa31c	-1.4971652
158	0x3f83d3e4	1.0299039
159	0xc15f64a0	-13.962067
160	0x4129999a	10.6
161	0xbeeec2d4	-0.46633017
162	0x41177da8	9.468178
163	0xc0988217	-4.76588
164	0x418ccccd	17.6
165	0xbf7b53d1	-0.9817477
166	0x411c72d6	9.778036
167	0xc16a2450	-14.633865
168	0x418e6666	17.8
169	0xbfeec2d4	-1.8653207
170	0xc0a5589d	-5.167067
171	0xc18844b0	-17.033539
172	0x41500000	13.0
173	0x4024ef01	2.5770876
174	0xc12fbac3	-10.983096
175	0x40de8f1b	6.954969
176	0x41200000	10.0
177	0xbefb53d1	-0.49087384
178	0x410d1b7f	8.819213
179	0xc096d8d2	-4.7139673
180	0x41800000	16.0
181	0xbf6231d6	-0.88357294
182	0x41226799	10.150292
183	0xc145e403	-12.368167
184	0x41233333	10.2
185	0xc02feddf	-2.7488935
186	0xc116c6f3	-9.423572
187	0xc079d0d5	-3.903371
188	0x415ccccd	13.8
189	0x3f55a0d8	0.83448553
190	0x411447bc	9.267513
191	0x41239a1d	10.225125
192	0x41300000	11.0
193	0xbf96cbe4	-1.1780972
194	0x4086b45f	4.209518
195	0xc1229a51	-10.162675
196	0x4199999a	19.2
197	0x3eeec2d4	0.46633017
198	0x41893302	17.149906
199	0x410a1ee0	8.632538
200	0x41266666	10.4
201	0xc02b3780	-2.6752625
202	0xc114a1ed	-9.289533
203	0xc095a172	-4.6759577
204	0x41633333	14.2
205	0xbfdbe957	-1.7180585
206	0xc0055941	-2.0835726
207	0xc160bdac	-14.046307
208	0x41233333	10.2
209	0x3e2feddf	0.17180584
210	0x4120cc1d	10.049832
211	0x3fdf3535	1.7438112
212	0x41880000	17.0
213	0xbfdbe957	-1.7180585
214	0xc01fa48c	-2.4944181
215	0xc186872b	-16.816
216	0x40eccccd	7.4
217	0xc036365e	-2.8470683
218	0xc0e29a7d	-7.0813584
219	0xc0097a94	-2.1481066
220	0x4169999a	14.6
221	0xbeeec2d4	-0.46633017
222	0x4150a83e	13.041075
223	0xc0d20ef4	-6.5643253
224	0x4181999a	16.2
225	0x4034a43e	2.8225245
226	0xc1761e22	-15.382357
227	0x40a29cd4	5.081644
228	0x41066666	8.4
229	0x3f42c75c	0.7608545
230	0x40c2ad78	6.0836754
231	0x40b95937	5.7921405
232	0x4139999a	11.6
233	0xc03fa31c	-2.9943304
234	0xc1379756	-11.474447
235	0xbfd9dd8b	-1.7020735
236	0x41900000	18.0
237	0x402cc9a0	2.6998062
238	0xc1822ca9	-16.271807
239	0x40f64590	7.6959915
240	0x41666666	14.4
241	0x4013a7a5	2.3071072
242	0xc11aba29	-9.670449
243	0x412ab713	10.669696
244	0x41933333	18.4
245	0xc0395a9e	-2.8961558
246	0xc18ec9e2	-17.848576
247	0xc08f1115	-4.470835
248	0x41980000	19.0
249	0xbdfb53d1	-0.12271846
250	0x4196db5d	18.857111
251	0xc014d9f4	-2.3258028
252	0x41933333	18.4
253	0xbf8d5f26	-1.1044662
254	0x41045d96	8.272848
255	0xc1837b8d	-16.435328

train_y f4 [3000]
0	0xbcf1b47a	-0.029505003
1	0xbe013959	-0.12619533
2	0x3ccb4b84	0.024816282
3	0xbd97fc4c	-0.07421169
4	0x3d84fc59	0.06493444
5	0xbcf167e7	-0.02946849
6	0xbdc27234	-0.09494439
7	0xbdbba8ce	-0.09163056
8	0x3d2e98e7	0.042626288
9	0x3d51e47e	0.051243298
10	0xbcdb5bc2	-0.026777152
11	0xbe0ef4c1	-0.13960554
12	0xbd82332b	-0.06357416
13	0x3d68970c	0.056784675
14	0xbd499ca3	-0.049221646
15	0x3cb2462e	0.02176198
16	0x3d80d0bb	0.06289812
17	0x3ca7d8a9	0.020489054
18	0x3d83b88e	0.064316854
19	0x3d169592	0.036763735
20	0xbd94f8fe	-0.07274054
21	0x3d76ae83	0.06022502
22	0xbca4f8b7	-0.020138128
23	0x3cce59ed	0.025189364
24	0xbd134719	-0.035956476
25	0x3dfe6756	0.124220535
26	0xbab7a520	-0.0014011003
27	0x3cbc80c8	0.023010626
28	0xbc76d2d5	-0.015064915
29	0xbc828676	-0.015933257
30	0x3d212625	0.039343018
31	0x3da53e28	0.08068496
32	0x3d184f9c	0.037185296
33	0xbcf43325	-0.029809544
34	0xbe7285e9	-0.23683895
35	0x3dafeb69	0.08589823
36	0x3a87cfad	0.0010361575
37	0x3d8355d8	0.06412858
38	0xbd1c182f	-0.038109
39	0xbda028df	-0.078202955
40	0xbc44266e	-0.011972053
41	0xbd6dbf5b	-0.05804382
42	0xbd39b4b5	-0.04533835
43	0x3dfae46d	0.122506
44	0xbd9efb75	-0.07762805
45	0xbe29a080	-0.16565132
46	0xbd537c00	-0.051631927
47	0x3b8402cc	0.0040286537
48	0xbd05a3d3	-0.032626938
49	0xc0759912	-3.8374677
50	0xbd8705f0	-0.06592929
51	0xbd9426d9	-0.07233972
52	0x3adfdc50	0.0017079208
53	0xbdb1e117	-0.086855106
54	0x3ce6022a	0.028077204
55	0xbd2021e5	-0.039094824
56	0x3d7a327d	0.061083306
57	0x3d5bdaa5	0.053675313
58	0xbd12511d	-0.035721887
59	0x3cb43322	0.021997038
60	0x3d64ed6b	0.055890482
61	0x3dd06efb	0.10177418
62	0xbd2cb5e2	-0.042165644
63	0xbdc154eb	-0.09440025
64	0xbc5a489e	-0.013322977
65	0x3ca5c150	0.02023378
66	0xbca93761	-0.02065629
67	0x3d593f31	0.05303878
68	0x3ce03c54	0.027372517
69	0x3d43d98f	0.047814902
70	0x3db77b8b	0.08959111
71	0x3db38234	0.08765069
72	0x3dad7aae	0.08470665
73	0x3d086b69	0.03330556
74	0xbb399eab	-0.0028323333
75	0x3d90e334	0.070745856
76	0x3db37927	0.08763342
77	0xbd88261a	-0.06647892
78	0xbd8bb131	-0.06820906
79	0x3c6a863c	0.0143142305
80	0x3d10266f	0.035192903
81	0xbda0e33f	-0.07855844
82	0x3dc44fd0	0.095855355
83	0x3d47ac8c	0.048748538
84	0xbc93fc79	-0.018064724
85	0xbd853066	-0.06503372
86	0xbd7e1c44	-0.062038675
87	0x3c9a3609	0.018824594
88	0xbcfbab6e	-0.030721392
89	0xbd88aefb	-0.06674
90	0x3c906afe	0.017629143
91	0x3d044802	0.032295235
92	0xbcb8f78a	-0.022578973
93	0x3c6b2dc9	0.014354178
94	0xbc5bcc8d	-0.013415468
95	0xba43f23a	-0.0007474754
96	0xbc6ac11e	-0.014328269
97	0x3dce3f13	0.10070624
98	0x3cbe49c8	0.023228541
99	0xbd84f13a	-0.06491323
100	0x3e07dc72	0.13267687
101	0x3d74085a	0.059578277
102	0xbd64b771	-0.055839006
103	0xbd369ba4	-0.044582024
104	0x3ca56f5f	0.020194707
105	0x3c9bb014	0.019004859
106	0x3bad53ae	0.0052895164
107	0xbcc23d72	-0.02371094
108	0xbd1d05d6	-0.038335644
109	0xbd854506	-0.06507306
110	0xbd0ed998	-0.034875482
111	0xbc9cb133	-0.019127464
112	0xbdcdd6c3	-0.10050728
113	0x3d146a11	0.036233965
114	0x3d0ef026	0.034896992
115	0x3d3bc0eb	0.045838278
116	0x3c79ebff	0.01525402
117	0x3b3e1844	0.0029006163
118	0x3c02166f	0.007939919
119	0xbe00f190	-0.12592149
120	0xbc8202c5	-0.015870461
121	0xbd9e34d4	-0.0772492
122	0xbd1016b8	-0.035177916
123	0xbf83b5ec	-1.0289893
124	0xbcf0ee1f	-0.02941042
125	0xbc88d5c9	-0.016703503
126	0x3b90341c	0.004400743
127	0xbf778b2b	-0.9669673
128	0xbe03f34c	-0.12885779
129	0xbdc6ff99	-0.0971672
130	0x3d00eeff	0.031477924
131	0xbd0da277	-0.034578767
132	0xbce804a9	-0.028322535
133	0xbc66692b	-0.01406316
134	0x3d710232	0.058839984
135	0xbdc43921	-0.09581209
136	0x3d4dfa23	0.050287377
137	0xbcad7bf5	-0.021177271
138	0xbb1b7da2	-0.0023726006
139	0x3c023059	0.007946097
140	0x3d2ea8a1	0.042641286
141	0x3c12f646	0.008969849
142	0xbcfd16f1	-0.030894728
143	0x3c8df371	0.017327996
144	0x3ce0e5e0	0.027453363
145	0x3df87148	0.12130982
146	0x3d5aa0c4	0.053375974
147	0xbae9e44a	-0.0017844525
148	0x3db35c07	0.08757787
149	0x3d8baa24	0.06819561
150	0x3d927ab4	0.0715231
151	0xbca29fbe	-0.019851562
152	0x3ddcd5f5	0.107829966
153	0x3ab7e9bc	0.001403145
154	0xbd766b2a	-0.060160793
155	0x3cfa4961	0.030552568
156	0x3c2a4ab8	0.010393791
157	0x3cb01ec8	0.021499053
158	0x3c939fb6	0.018020492
159	0x3d241194	0.040055826
160	0xbc2061e7	-0.009788967
161	0xbbdbfefe	-0.006713747
162	0xbc93c45e	-0.018037971
163	0xbdae9132	-0.085237876
164	0xbd83047c	-0.0639734
165	0x3d84e4d3	0.06488957
166	0xbb6b24aa	-0.0035880008
167	0xbb63c61e	-0.0034755538
168	0xbf42ada9	-0.76046234
169	0xbd4a1ab2	-0.049341865
170	0xbdeb0b95	-0.114768185
171	0x3db4e38e	0.08832465
172	0x3dd74b0e	0.105123624
173	0x3d2b67b3	0.041846942
174	0x3cb41f77	0.02198766
175	0xbe02d687	-0.12777148
176	0xbb79201c	-0.0038013523
177	0x3d49273b	0.04910968
178	0x3df0ca0f	0.117572896
179	0xbd3ff15b	-0.046861034
180	0x3ca89234	0.020577528
181	0xbd17cd49	-0.03706101
182	0x3d060ac5	0.032725114
183	0x3d8ab712	0.06773199
184	0xbc846136	-0.016159635
185	0xbc73ef97	-0.014888666
186	0x3ca15a1d	0.01969629
187	0xbcf7cd72	-0.030249331
188	0x3cb658a3	0.022259062
189	0xbb324844	-0.0027203718
190	0x3b8ed782	0.0043591866
191	0x3d5e56e7	0.054282095
192	0x3d1517c0	0.036399603
193	0xbddce3d9	-0.10785646
194	0x3d1382f5	0.036013562
195	0x3da694e4	0.081338674
196	0xbe32790a	-0.17428985
197	0xbe067d73	-0.13133793
198	0xbd508d14	-0.050915793
199	0xbd963886	-0.07335
200	0xbd4639a0	-0.0483948
201	0x3e0f4890	0.13992524
202	0x3d2b722d	0.041856933
203	0xbd4aaa00	-0.04947853
204	0xbd8008bb	-0.06251665
205	0x3d7664ff	0.06015491
206	0xbee72fb8	-0.45153594
207	0xbe080aa9	-0.13285317
208	0x3d043c28	0.032283932
209	0x3d26a59c	0.04068528
210	0xbe4f8089	-0.20263876
211	0xbc30757e	-0.0107702
212	0x3d8a9bfc	0.06768033
213	0xbca4b6d3	-0.020106709
214	0x3d4cab2e	0.049967937
215	0xbdc6b02a	-0.097015694
216	0x3d105ed2	0.035246678
217	0x3e0e526e	0.13898632
218	0xbcfe0116	-0.031006377
219	0xbde4b741	-0.111677654
220	0x3ccf3776	0.025295
221	0xbd7d9277	-0.061907258
222	0xbda42d01	-0.08016396
223	0x39373f7a	0.00017475887
224	0xbc7c0bf9	-0.015383714
225	0x3c48db5f	0.012259333
226	0x3cf6b154	0.030113854
227	0x3d1b5eb4	0.037932113
228	0x3d9e4f0f	0.07729923
229	0xbd83c737	-0.064344816
230	0xbd24d9b7	-0.04024669
231	0x3cf30a06	0.029667865
232	0x3da33978	0.07969946
233	0x3c83d6db	0.016093662
234	0x3cbd2077	0.02308677
235	0x3d898af5	0.06715957
236	0x3d1c48a0	0.038155198
237	0x3ce1cb71	0.027562829
238	0x3d6b6992	0.057473727
239	0xbd125ee9	-0.035735045
240	0x3df031a4	0.11728218
241	0xbd659e86	-0.056059383
242	0xbdca9916	-0.0989248
243	0xbde350ae	-0.11099373
244	0x3d3ea7dc	0.046546802
245	0xbdcd5338	-0.10025638
246	0xbdc36f21	-0.095426805
247	0x3d3767df	0.044776794
248	0xbcc76c5d	-0.024343664
249	0x3d435fe0	0.047698855
250	0xbcfb968b	-0.030711433
251	0x3dd1469c	0.10218546
252	0x3cd65dfd	0.026167864
253	0xbd0136dc	-0.03154646
254	0xbd3d6d41	-0.04624677
255	0xbda76b17	-0.08174723
