velocity_residuals/azimuthal_velocity_residuals_hd34282_dbell_b0p30/azimuthal_velocity_residuals_hd34282_dbell_b0p30_rescaled.npy (npy, 65920 bytes, 1 tensors)

array f8 [32, 257]
00000000: 04ad c090 d5ad d0bf f06f 925f 1c7d cfbf
00000010: d985 a39d 8d9e cdbf b89b b4db febf cbbf
00000020: a0b1 c519 70e1 c9bf 88c7 d657 e102 c8bf
00000030: 70dd e795 5224 c6bf 58f3 f8d3 c345 c4bf
00000040: 3809 0a12 3567 c2bf 201f 1b50 a688 c0bf
00000050: bc5a 235e 39b1 b8bf bccc 9177 3c47 a9bf
00000060: e03f ce2d 63c0 62bf be04 d811 30ef a63f
00000070: fb76 462b 3385 b73f ae75 d026 67c9 c13f
00000080: deaf fdb7 34d0 c73f 0cea 2a49 02d7 cd3f
00000090: 1e12 2ced e7ee d13f c26d 065a 34b5 d43f
000000a0: 6b65 13c0 b8a6 d53f 155d 2026 3d98 d63f
000000b0: be54 2d8c c189 d73f 684c 3af2 457b d83f
000000c0: 1144 4758 ca6c d93f bf3b 54be 4e5e da3f
000000d0: 6833 6124 d34f db3f 122b 6e8a 5741 dc3f
000000e0: bb22 7bf0 db32 dd3f c6e1 95e1 d169 de3f
000000f0: d274 86f0 86c2 df3f ef83 bbff 9d8d e03f
00000100: 74cd 3387 f839 e13f fa16 ac0e 53e6 e13f
00000110: 8060 2496 ad92 e23f 06aa 9c1d 083f e33f
00000120: 90f3 14a5 62eb e33f 153d 8d2c bd97 e43f
00000130: 59bd eaff 0cb7 e43f eb4b 4134 d4ff e23f
00000140: 73da 9768 9b48 e13f 08d2 dc39 c522 df3f
00000150: 2aef 89a2 53b4 db3f 4d0c 370b e245 d83f
00000160: 6f29 e473 70d7 d43f 9146 91dc fe68 d13f
00000170: 68c7 7c8a 1af5 cb3f 8801 d75b 3718 c53f
00000180: 89c1 97c7 72bf c13f ab00 a00a e0b0 be3f
00000190: 387e 1086 dae2 b93f d2fb 8001 d514 b53f
000001a0: 6079 f17c cf46 b03f f4ed c3f0 93f1 a63f
000001b0: 50d2 49cf 11ab 9a3f 2022 2ff4 eecb 7d3f
000001c0: 2082 64aa 348a 87bf a2be 250b 703a 9abf
000001d0: b8d4 1182 73af 9fbf 60f5 7e7c 3b92 a2bf
000001e0: 6400 f537 bd4c a5bf 6e0b 6bf3 3e07 a8bf
000001f0: 7216 e1ae c0c1 aabf 7d21 576a 427c adbf
00000200: 4096 e612 621b b0bf c29b a1f0 a278 b1bf
00000210: 48a1 5cce e3d5 b2bf ab0c d7c8 f58d b7bf
00000220: 79f0 a66e aaa1 bcbf 1d6a 3b8a afda c0bf
00000230: fe5b 23dd 8964 c3bf e44d 0b30 64ee c5bf
00000240: c43f f382 3e78 c8bf a631 dbd5 1802 cbbf
00000250: 8c23 c328 f38b cdbf b68a d5bd e60a d0bf
00000260: e511 30fc d93d d0bf e0f2 3d3b 8f61 cebf
00000270: fcc1 1b7e 6a47 ccbf 1291 f9c0 452d cabf
00000280: 2d60 d703 2113 c8bf 482f b546 fcf8 c5bf
00000290: 64fe 9289 d7de c3bf 74cd 70cc b2c4 c1bf
000002a0: 2039 9d1e 1c55 bfbf 6626 3530 c860 bbbf
000002b0: 28e2 8f66 2b32 c2bf 1c31 05b5 f2b3 c6bf
000002c0: 1180 7a03 ba35 cbbf 1ccf ef51 81b7 cfbf
000002d0: 098f 3250 a41c d2bf 8336 6df7 875d d4bf
000002e0: fedd a79e 6b9e d6bf 7885 e245 4fdf d8bf
000002f0: fd2c 1ded 3220 dbbf d612 8107 4d9e dbbf
00000300: f23f 5683 53d1 dabf 0f6d 2bff 5904 dabf
00000310: 2c9a 007b 6037 d9bf 44c7 d5f6 666a d8bf
00000320: 60f4 aa72 6d9d d7bf 7d21 80ee 73d0 d6bf
00000330: 9a4e 556a 7a03 d6bf b67b 2ae6 8036 d5bf
00000340: 79d9 b1a8 1547 d4bf f668 ee37 7679 d2bf
00000350: 72f8 2ac7 d6ab d0bf de0f cfac 6ebc cdbf
00000360: d82e 48cb 2f21 cabf d24d c1e9 f085 c6bf
00000370: b96c 3a08 b2ea c2bf 6617 674d e69e bebf
00000380: 5855 598a 6868 b7bf 4c93 4bc7 ea31 b0bf
00000390: 4c70 d1c7 98e4 a3bf 2a18 6846 8282 90bf
000003a0: 40bf 4a0b b410 7b3f ca77 0d4c dc0a 9e3f
000003b0: e11f a4ca c5a8 aa3f f0c1 a0b7 0e26 b33f
000003c0: ee73 ef89 baf7 b83f 0a26 3e5c 66c9 be3f
000003d0: 046c 4617 894d c23f 165a e5c8 8ebd c43f
000003e0: 7d39 acb9 36c2 c53f e518 73aa dec6 c63f
000003f0: 52f8 399b 86cb c73f b9d7 008c 2ed0 c83f
00000400: 20b7 c77c d6d4 c93f 8896 8e6d 7ed9 ca3f
00000410: f075 555e 26de cb3f 5c55 1c4f cee2 cc3f
00000420: c434 e33f 76e7 cd3f 38fb 07b0 e75d cd3f
00000430: 4610 be3a 3875 cc3f 5525 74c5 888c cb3f
00000440: 5f3a 2a50 d9a3 ca3f 6e4f e0da 29bb c93f
00000450: 7c64 9665 7ad2 c83f 8b79 4cf0 cae9 c73f
00000460: 9a8e 027b 1b01 c73f a8a3 b805 6c18 c63f
00000470: 83e7 aba7 bcf6 c43f f489 0858 d171 c33f
00000480: 642c 6508 e6ec c13f d5ce c1b8 fa67 c03f
00000490: 8be2 3cd2 1ec6 bd3f 5d27 f632 48bc ba3f
000004a0: 3e6c af93 71b2 b73f 1fb1 68f4 9aa8 b43f
000004b0: 00f6 2155 c49e b13f c475 b66b db29 ad3f
000004c0: d011 6fee 4bd4 a33f 6038 1902 5771 943f
000004d0: 40d8 4475 62a1 533f 5a9d 70b3 2afd 91bf
000004e0: 1bc4 1ac7 359a a2bf 8b39 7d34 d635 acbf
000004f0: 94d7 ef50 bbe8 b2bf 4c12 a187 8bb6 b7bf
00000500: 024d 52be 5b84 bcbf f8d5 4949 bdbf bfbf
00000510: c19b 6d41 b3a3 c0bf 864c 36de 8767 c1bf
00000520: 4bfd fe7a 5c2b c2bf 10ae c717 31ef c2bf
00000530: dc5e 90b4 05b3 c3bf a10f 5951 da76 c4bf
00000540: 66c0 21ee ae3a c5bf 2b71 ea8a 83fe c5bf
00000550: 1767 ce22 fea7 c6bf 4cf7 3a39 bdb2 c4bf
00000560: 8287 a74f 7cbd c2bf b717 1466 3bc8 c0bf
00000570: d94f 01f9 f4a5 bdbf 4470 da25 73bb b9bf
00000580: ae90 b352 f1d0 b5bf f1b0 8c7f 6fe6 b1bf
00000590: b8a2 cb58 dbf7 abbf 8ce3 7db2 d722 a4bf
000005a0: 5f9e 53b5 f5e3 a1bf 217c 06ed af70 a3bf
000005b0: e359 b924 6afd a4bf a537 6c5c 248a a6bf
000005c0: 6715 1f94 de16 a8bf 29f3 d1cb 98a3 a9bf
000005d0: ebd0 8403 5330 abbf bdae 373b 0dbd acbf
000005e0: 7f8c ea72 c749 aebf 41b2 0eb2 90ef aebf
000005f0: 57c4 0f45 f397 aabf 6dd6 10d8 5540 a6bf
00000600: 84e8 116b b8e8 a1bf 34f5 25fc 3522 9bbf
00000610: 6019 2822 fb72 92bf 187b 5490 8087 83bf
00000620: a01b c6e2 5648 51bf 70e8 45af d56a 7e3f
00000630: 4856 cf45 f049 903f aa21 b8f9 5bd7 8b3f
00000640: 5aef 4bc8 1e38 7c3f 006c f3a4 b330 283f
00000650: 98b8 fc8d 13b5 7abf 4886 905c d615 8bbf
00000660: 2458 1179 9168 94bf 226d dac3 3746 9bbf
00000670: 10c1 5107 ef11 a1bf 8f4b b62c c280 a4bf
00000680: a359 235a a6ed a3bf e4a8 b732 ccdc 90bf
00000690: f885 5d3b d186 783f de6b 66d0 3420 9d3f
000006a0: 21bb faa8 5a0f aa3f 2820 e174 4dc7 b23f
000006b0: c2e2 4495 ed86 b83f 5aa5 a8b5 8d46 be3f
000006c0: f933 06eb 1603 c23f 4515 38fb e6e2 c43f
000006d0: b0ed ce36 5cc0 c33f 9bec f746 bac5 c13f
000006e0: 37d7 41ae 3096 bf3f 36d5 93ce eca0 bb3f
000006f0: 37d3 e5ee a8ab b73f 36d1 370f 65b6 b33f
00000700: 6c9e 135f 4282 af3f 6c9a b79f ba97 a73f
00000710: d82c b7c0 655a 9f3f 0ead 8666 c6ae 993f
00000720: d39e 8e1d 882a a23f 1ee7 d907 ad7d a73f
00000730: a02f 25f2 d1d0 ac3f f63b 386e fb11 b13f
00000740: 1ce0 5de3 8dbb b33f 4184 8358 2065 b63f
00000750: 6728 a9cd b20e b93f 8dcc ce42 45b8 bb3f
00000760: b270 f4b7 d761 be3f eba6 ac81 4022 b73f
00000770: 46d9 8ac5 6689 ae3f 6cc9 780f 999c 9d3f
00000780: 40fb 41c2 b699 5dbf 0a85 e0f3 e7a7 a0bf
00000790: cd7c d718 8131 b0bf 15b7 be37 0e0f b8bf
000007a0: 5df1 a556 9bec bfbf d295 c63a 14e5 c3bf
000007b0: 1554 bff4 4671 c6bf ac15 00e9 8999 c7bf
000007c0: 44d7 40dd ccc1 c8bf dc98 81d1 0fea c9bf
000007d0: 735a c2c5 5212 cbbf 171c 03ba 953a ccbf
000007e0: aedd 43ae d862 cdbf 469f 84a2 1b8b cebf
000007f0: de60 c596 5eb3 cfbf bdfb e3bd 6a65 d0bf
-0.26061 -0.24600557962992253 -0.23140115925984509 -0.21679673888976736 -0.20219231851968988 -0.1875878981496124 -0.17298347777953493 -0.15837905740945746
-0.14377463703937976 -0.12917021666930228 -0.09645422504704987 -0.049371614070787356 -0.00228900309452483 0.04479360788173768 0.09187621885800105 0.1389588298342636
0.18604144081052615 0.23312405178678863 0.2802066627630512 0.3235598448897826 0.33830088384055185 0.3530419227913211 0.36778296174209035 0.38252400069285963
0.39726503964362886 0.41200607859439836 0.4267471175451676 0.44148815649593687 0.4562291954467061 0.4752087309821288 0.4962479924086668 0.5172872538352048
0.5383265152617427 0.5593657766882807 0.5804050381148187 0.6014442995413567 0.6224835609678951 0.643522822394433 0.6473450659158672 0.5937291164976818
0.5401131670794953 0.4864972176613098 0.43288126824312434 0.3792653188249389 0.32564936940675343 0.27203341998856795 0.21841747057038252 0.16480152115219604
0.1386550402235225 0.11988640078925765 0.10111776135499262 0.08234912192072777 0.06358048248646275 0.0448118430521979 0.026043203617933053 0.007274564183668036
-0.011494075250596814 -0.025613547020326373 -0.03094273072607187 -0.03627191443181732 -0.04160109813756277 -0.04693028184330826 -0.05225946554905371 -0.05758864925479921
-0.06291783296054465 -0.0682470166662901 -0.0735762003720356 -0.09200988915749757 -0.11184182359187557 -0.1316737580262534 -0.15150569246063122 -0.1713376268950092
-0.191169561329387 -0.21100149576376487 -0.23083343019814284 -0.25066536463252065 -0.2537751162310811 -0.2373522795932308 -0.22092944295538064 -0.20450660631753032
-0.18808376967968013 -0.17166093304182994 -0.1552380964039798 -0.1388152597661293 -0.12239242312827914 -0.10694552590316561 -0.1421560526648744 -0.17736657942658318
-0.21257710618829198 -0.2477876329500014 -0.2829981597117102 -0.318208686473419 -0.3534192132351278 -0.3886297399968366 -0.42384026675854597 -0.4315369199069158
-0.4190262587153476 -0.40651559752377947 -0.39400493633221134 -0.38149427514064294 -0.36898361394907475 -0.3564729527575066 -0.3439622915659385 -0.3314516303743703
-0.3168386599931164 -0.28866343938865613 -0.2604882187841958 -0.23231299817973555 -0.2041377775752753 -0.17596255697081503 -0.14778733636635424 -0.11961211576189398
-0.0914368951574337 -0.06326167455297343 -0.03885343016801865 -0.01612285189369104 0.00660772638063617 0.029338304654963378 0.05206888292929058 0.0747994612036178
0.097530039477945 0.12026061775227262 0.14299119602659982 0.16203484353418734 0.16998943391849855 0.17794402430280978 0.18589861468712116 0.19385320507143236
0.20180779545574357 0.2097623858400548 0.21771697622436603 0.22567156660867738 0.2336261569929886 0.22942825408241574 0.22232725971491812 0.21522626534742054
0.2081252709799228 0.20102427661242522 0.1939232822449276 0.18682228787743002 0.17972129350993243 0.17262029914243482 0.1637798136433127 0.15191094206336653
0.14004207048342032 0.12817319890347414 0.11630432732352795 0.10443545574358155 0.09256658416363536 0.08069771258368917 0.06882884100374298 0.0569599694237968
0.03872906957215927 0.019963607314189225 0.0011981450562195267 -0.017567317201750178 -0.036332779459719876 -0.05509824171768959 -0.07386370397565961 -0.09262916623362932
-0.11139462849159901 -0.12401946105259032 -0.1299957341645648 -0.1359720072765393 -0.1419482803885138 -0.14792455350048828 -0.15390082661246296 -0.15987709972443745
-0.16585337283641194 -0.17182964594838643 -0.17700173091434898 -0.161704686111927 -0.14640764130950507 -0.1311105965070831 -0.11581355170466114 -0.10051650690223918
-0.0852194620998172 -0.06992241729739469 -0.054625372494972735 -0.03932832769255076 -0.03494232023677734 -0.0379691101872981 -0.04099590013781886 -0.044022690088339624
-0.047049480038860385 -0.050076269989381146 -0.05310305993990191 -0.05612984989042278 -0.05915663984094354 -0.06042148755600297 -0.051940538578386146 -0.04345958960076932
-0.03497864062315251 -0.026497691645535684 -0.01801674266791886 -0.009535793690302038 -0.0010548447126852226 0.007426104264931607 0.015907053242548735 0.01359435897667612
0.006889457935127153 0.00018455689357818605 -0.006520344147970779 -0.013225245189519744 -0.019930146231068716 -0.02663504727261768 -0.033339948314166645 -0.04004484935571561
-0.038922499182876956 -0.016467276187463478 0.0059879468079499995 0.02844316980336347 0.050898392798776955 0.07335361579419042 0.09580883878960392 0.11826406178501739
0.14071928478043086 0.16317450777584433 0.15430786777674887 0.13884666886574312 0.12338546995473797 0.10792427104373278 0.09246307213272763 0.07700187322172244
0.061540674310717275 0.046079475399712105 0.030618276488706936 0.02508077622193832 0.03548074112705781 0.045880706032177296 0.05628067093729716 0.06668063584241665
0.07708060074753614 0.08748056565265562 0.09788053055777511 0.1082804954628946 0.11868046036801408 0.09036639371756976 0.059642039884624284 0.028917686051678812
-0.0018066677812666604 -0.03253102161421324 -0.06325537544715872 -0.09397972928010419 -0.12470408311304966 -0.15542843694599512 -0.17533194494777207 -0.1843731296250274
-0.19341431430228273 -0.20245549897953807 -0.2114966836567934 -0.22053786833404906 -0.22957905301130438 -0.23862023768855972 -0.24766142236581506 -0.25619
