velocity_residuals/azimuthal_velocity_residuals_j1615_dbell_b0p30/azimuthal_velocity_residuals_j1615_dbell_b0p30_rescaled.npy (npy, 100872 bytes, 1 tensors)

array f8 [49, 257]
00000000: ac39 4030 478f bfbf a9c2 c183 5b98 c0bf
00000010: 7c68 636f 1369 c1bf 530e 055b cb39 c2bf
00000020: 26b4 a646 830a c3bf f959 4832 3bdb c3bf
00000030: f8e8 bb65 4532 c4bf e5f2 fd48 d77c c4bf
00000040: d3fc 3f2c 69c7 c4bf c006 820f fb11 c5bf
00000050: ad10 c4f2 8c5c c5bf dbb6 40e7 dd63 c5bf
00000060: 461d 0608 d35b c5bf b183 cb28 c853 c5bf
00000070: 1cea 9049 bd4b c5bf 8850 566a b243 c5bf
00000080: 83bf 747d a14e c5bf c4cc f540 e760 c5bf
00000090: 05da 7604 2d73 c5bf 46e7 f7c7 7285 c5bf
000000a0: 87f4 788b b897 c5bf 7d55 a448 2783 c5bf
000000b0: 4260 e16a 9857 c5bf 066b 1e8d 092c c5bf
000000c0: cb75 5baf 7a00 c5bf 8f80 98d1 ebd4 c4bf
000000d0: fec6 5e61 12d3 c3bf aa47 e97c 2017 c2bf
000000e0: 56c8 7398 2e5b c0bf f491 fc67 793e bdbf
000000f0: 4c93 119f 95c6 b9bf aa32 3230 32c8 b6bf
00000100: a24c b4c9 0963 b4bf 9a66 3663 e1fd b1bf
00000110: 2601 71f9 7131 afbf 1735 752c 2167 aabf
00000120: ce96 030c fac0 a1bf 201d 6648 99a8 6ebf
00000130: 56a6 edc5 cdd7 9b3f 2708 745a 57c2 ad3f
00000140: ba9e f8e8 63cc b63f c758 d1ed 0884 ba3f
00000150: e4f9 7d7f 440b b23f 0436 5522 0025 a33f
00000160: f0c1 732d ba9b 713f 148b f02d 237c 9dbf
00000170: 31dd da19 0b87 acbf 1b78 39ba 8e23 aabf
00000180: 1113 985a 12c0 a7bf 08ae f6fa 955c a5bf
00000190: f848 559b 19f9 a2bf 101e ea9f 16c8 a0bf
000001a0: b28f 2824 5931 a1bf 5401 67a8 9b9a a1bf
000001b0: f672 a52c de03 a2bf 98e4 e3b0 206d a2bf
000001c0: 3a56 2235 63d6 a2bf 7ca2 e776 4654 a3bf
000001d0: 11c8 9d81 a3d2 a3bf a5ed 538c 0051 a4bf
000001e0: 3913 0a97 5dcf a4bf cf38 c0a1 ba4d a5bf
000001f0: 0879 120b 73e4 a5bf 19f7 30ac 597e a6bf
00000200: 2975 4f4d 4018 a7bf 39f3 6dee 26b2 a7bf
00000210: 4b71 8c8f 0d4c a8bf 6854 8bc7 78d6 a8bf
00000220: 3717 a539 d05c a9bf 04da beab 27e3 a9bf
00000230: d19c d81d 7f69 aabf a05f f28f d6ef aabf
00000240: b8e9 3aff 713e abbf 5a70 7262 0175 abbf
00000250: fdf6 a9c5 90ab abbf 9f7d e128 20e2 abbf
00000260: 4204 198c af18 acbf 146e ecfa c967 abbf
00000270: 7e2d 5da7 2b20 aabf e6ec cd53 8dd8 a8bf
00000280: 50ac 3e00 ef90 a7bf ba6b afac 5049 a6bf
00000290: dbff 4450 295b acbf 4421 da61 beb4 b4bf
000002a0: 79c2 911b e83b bbbf d8b1 a4ea 88e1 c0bf
000002b0: 7282 80c7 1d25 c4bf c809 80dd 83e1 c4bf
000002c0: f743 afc4 201f c2bf 2ffc bc57 7bb9 bebf
000002d0: 8c70 1b26 b534 b9bf eae4 79f4 eeaf b3bf
000002e0: 1e3a 64aa 1295 abbf 6c53 9627 3c78 9cbf
000002f0: 6021 43a6 2f65 5cbf bcee cd32 96eb 983f
00000300: c407 00b0 bfce a93f b95b bffe a3e0 b23f
00000310: 8de6 446b 938e b63f 7471 cad7 823c ba3f
00000320: 48fc 4f44 72ea bd3f 8ec3 6ad8 30cc c03f
00000330: d6ec 3190 e364 c23f 52f3 1d92 b681 c23f
00000340: cff9 0994 899e c23f 4c00 f695 5cbb c23f
00000350: c806 e297 2fd8 c23f 5c08 fc14 d2f0 c23f
00000360: 96d6 ed87 24b6 c23f cfa4 dffa 767b c23f
00000370: 0873 d16d c940 c23f 4141 c3e0 1b06 c23f
00000380: 7a0f b553 6ecb c13f 76f4 96b9 618a c23f
00000390: fbbf 20c5 1d55 c33f 848b aad0 d91f c43f
000003a0: 0957 34dc 95ea c43f 8e22 bee7 51b5 c53f
000003b0: b570 be63 92f7 c53f d763 fd60 f723 c63f
000003c0: fa56 3c5e 5c50 c63f 1d4a 7b5b c17c c63f
000003d0: 3f3d ba58 26a9 c63f 0f4c 8977 bc51 c63f
000003e0: 7a4f 11b7 bad2 c53f e552 99f6 b853 c53f
000003f0: 4e56 2136 b7d4 c43f b959 a975 b555 c43f
00000400: 0d93 1fe2 564d c33f 76f6 88b7 2503 c23f
00000410: df59 f28c f4b8 c03f 827a b7c4 86dd be3f
00000420: 5441 8a6f 2449 bc3f 93bc 418b 035f bb3f
00000430: 5f76 eeac a8a5 bb3f 2b30 9bce 4dec bb3f
00000440: f9e9 47f0 f232 bc3f c6a3 f411 9879 bc3f
00000450: bb44 2a4a 335b bd3f 7dc9 62ef 02de be3f
00000460: 20a7 4d4a 6930 c03f 81e9 e91c d1f1 c03f
00000470: e62b 86ef 38b3 c13f 9e4d 6d27 5382 c23f
00000480: e760 9f6e 3766 c33f 2f74 d1b5 1b4a c43f
00000490: 7887 03fd ff2d c53f c59a 3544 e411 c63f
000004a0: 3c99 c759 b5bc c63f 28f9 2d32 fce4 c63f
000004b0: 1459 940a 430d c73f ffb8 fae2 8935 c73f
000004c0: eb18 61bb d05d c73f e2d8 5083 7b3d c73f
000004d0: 70dc fd63 0e0e c63f ffdf aa44 a1de c43f
000004e0: 8ee3 5725 34af c33f 1ce7 0406 c77f c23f
000004f0: 3b7e ebce d648 c13f 7640 3167 d1b3 bf3f
00000500: 7684 8b30 f5d5 bc3f 77c8 e5f9 18f8 b93f
00000510: 780c 40c3 3c1a b73f a9fd ece0 b346 b43f
00000520: 156b e1f8 5e00 b33f 80d8 d510 0aba b13f
00000530: df45 ca28 b573 b03f 9666 7d81 c05a ae3f
00000540: 6c41 66b1 16ce ab3f 471c 26ed 74ea ac3f
00000550: 22d0 c81d c84a ae3f fc83 6b4e 1bab af3f
00000560: ec1b 873f b785 b03f d975 d8d7 e035 b13f
00000570: 200c 88fb 0f0c b23f b2fd e314 85e9 b23f
00000580: 45ef 3f2e fac6 b33f e1e0 9b47 6fa4 b43f
00000590: 74d2 f760 e481 b53f ddc7 927f 1c3a b43f
000005a0: 2034 4755 c737 b23f 63a0 fb2a 7235 b03f
000005b0: 4c19 6001 3a66 ac3f d3f1 c8ac 8f61 a83f
000005c0: 8055 07ee 1b72 a33f 7403 4015 570c 9c3f
000005d0: e95b 714e 7634 913f c0cf 8a1e 5672 793f
000005e0: 70ce affc 2ced 71bf ca26 df2a 7c9c 80bf
000005f0: 6c38 8a3e cf81 7abf 4523 5627 a6ca 73bf
00000600: 3c1c 4420 fa26 6abf d8e3 b7e3 4f71 59bf
00000610: 01f6 0bb0 c825 73bf dd3f 65cd f711 8bbf
00000620: 5d42 62a1 8548 96bf cbe4 115c 0f08 9fbf
00000630: c9c3 608b cce3 a3bf 7784 6bec ead1 a6bf
00000640: 4499 01f3 f856 a7bf 10ae 97f9 06dc a7bf
00000650: ddc2 2d00 1561 a8bf aad7 c306 23e6 a8bf
00000660: e082 7245 9936 a8bf 0018 b220 1374 a4bf
00000670: 1ead f1fb 8cb1 a0bf 7c84 62ae 0dde 99bf
00000680: 6eae e164 0159 92bf e10e 296d 2546 88bf
00000690: fc5d d3fd 9b1b 87bf 16ad 7d8e 12f1 85bf
000006a0: 30fc 271f 89c6 84bf 4a4b d2af ff9b 83bf
000006b0: e603 6500 66c2 83bf f659 fb46 3d2b 90bf
000006c0: fa31 c48d 4775 96bf fe09 8dd4 51bf 9cbf
000006d0: 01f1 aa0d ae84 a1bf f3d3 4a59 0caa a4bf
000006e0: a451 ef1f 5f4b a8bf 56cf 93e6 b1ec abbf
000006f0: 084d 38ad 048e afbf 5d65 eeb9 ab97 b1bf
00000700: 36a4 401d 5568 b3bf c226 7b4c b1c1 b4bf
00000710: f5ba 01f5 3a0f b6bf 294f 889d c45c b7bf
00000720: 5de3 0e46 4eaa b8bf 9177 95ee d7f7 b9bf
00000730: 7834 217d a006 bbbf 3d4e 3fc6 5707 bcbf
00000740: 0168 5d0f 0f08 bdbf c681 7b58 c608 bebf
00000750: 8a9b 99a1 7d09 bfbf 0b19 915b d255 c0bf
00000760: 2a98 d83d ae45 c1bf 4817 2020 8a35 c2bf
00000770: 6796 6702 6625 c3bf 8615 afe4 4115 c4bf
00000780: aac5 b968 0479 c3bf 518c 36e5 1cf5 c1bf
00000790: 0853 b361 3571 c0bf 7c33 60bc 9bda bdbf
000007a0: eac0 59b5 ccd2 babf 598b bfb7 55e2 b8bf
000007b0: 2e36 c85f bfe1 b7bf 03e1 d007 29e1 b6bf
000007c0: d98b d9af 92e0 b5bf ae36 e257 fcdf b4bf
000007d0: ed3d 3358 19f7 b4bf 19ad dab7 fb6a b6bf
000007e0: 361c 8217 dede b7bf 528b 2977 c052 b9bf
000007f0: 6ffa d0d6 a2c6 babf ba4e 232d 95b7 bbbf
-0.12328 -0.12964958127442586 -0.1360191625488517 -0.14238874382327768 -0.14875832509770354 -0.1551279063721294 -0.15778415172082538 -0.1600598436742963
-0.16233553562776723 -0.16461122758123814 -0.16688691953470905 -0.16711019317283768 -0.16686475650588245 -0.16661931983892722 -0.166373883171972 -0.1661284465050168
-0.16646212220939213 -0.16701975509531597 -0.1675773879812398 -0.16813502086716364 -0.16869265375308748 -0.16806498572320186 -0.16673569887893974 -0.1654064120346776
-0.16407712519041548 -0.16274783834615333 -0.1548789000931307 -0.14133077716047399 -0.12778265422781726 -0.11423453129516031 -0.10068640836250359 -0.0889922492662644
-0.07963620352193115 -0.07028015777759791 -0.060924112033264685 -0.05156806628893145 -0.03467542072921291 -0.0037425035290571534 0.02719041367109861 0.05812333087125437
0.08905624807141069 0.10357719236467054 0.0704844294795986 0.03739166659452667 0.004298903709454724 -0.028793859175617234 -0.0557177990971759 -0.05105253241775661
-0.04638726573833741 -0.04172199905891821 -0.03705673237949897 -0.03277655317384298 -0.03357962194812049 -0.034382690722397996 -0.0351857594966755 -0.03598882827095301
-0.03679189704523052 -0.03775234414553538 -0.03871642071943893 -0.03968049729334248 -0.04064457386724602 -0.04160865044114958 -0.04275855550916857 -0.043932726163332166
-0.04510689681749575 -0.04628106747165934 -0.04745523812582294 -0.048511289938382884 -0.049536234890679536 -0.05056117984297617 -0.05158612479527281 -0.05261106974756946
-0.05321079483606489 -0.05362705542322095 -0.05404331601037702 -0.05445957659753308 -0.05487583718468915 -0.053526222114865046 -0.05102669160859373 -0.0485271611023224
-0.04602763059605108 -0.04352810008977977 -0.0553830061421647 -0.08088292969671779 -0.1063828532512704 -0.13188277680582305 -0.15738270036037566 -0.1631321746391008
-0.141574951207559 -0.12001772777601681 -0.09846050434447501 -0.07690328091293322 -0.05387171106314191 -0.02780241004582555 -0.0017331090285087267 0.02433619198880764
0.050405493006123986 0.07374024362012123 0.08811303490520057 0.10248582619028018 0.11685861747535953 0.13123140876043887 0.1437038854672667 0.14458353170985078
0.14546317795243488 0.14634282419501898 0.14722247043760306 0.14797426247247614 0.14618355405007283 0.1443928456276695 0.14260213720526616 0.14081142878286282
0.13902072036045948 0.14484807550426 0.15103504300486734 0.1572220105054748 0.16340897800608215 0.1695959455066895 0.17161779280002568 0.17297260509329135
0.17432741738655705 0.17568222967982275 0.17703704197308842 0.1743693908379957 0.17049344958160956 0.1666175083252234 0.1627415670688372 0.15886562581245103
0.15079771081141083 0.14072104894323773 0.13064438707506462 0.12056772520689132 0.11049106333871822 0.1069185461981184 0.10799650403938575 0.1090744618806531
0.11015241972192048 0.11123037756318785 0.11467285690948163 0.1205751261175347 0.12647739532558777 0.13237966453364083 0.138281933741694 0.14460219788689427
0.15155690099232474 0.1585116040977552 0.16546630720318567 0.17242101030861626 0.17763392337583095 0.17886307192015605 0.18009222046448115 0.18132136900880622
0.18255051755313131 0.18156379615692858 0.17230396158604178 0.163044127015155 0.15378429244426822 0.14452445787338142 0.13503537276754848 0.1238375546392961
0.11263973651104373 0.10144191838279136 0.090244100254539 0.0792038368353959 0.07422441078362525 0.06924498473185459 0.06426555868008375 0.0592861326283131
0.054306706576542435 0.056476262997471376 0.05916428912715356 0.06185231525683574 0.06454034138651793 0.06722836751620011 0.07049655810264754 0.0738757301332871
0.07725490216392668 0.08063407419456638 0.08401324622520595 0.07901170839866674 0.07116361457811182 0.0633155207575569 0.05546742693700199 0.04761933311644708
0.03797995834944867 0.027390824005127226 0.016801689660805783 0.006212555316483959 -0.004376579027837488 -0.008110971506443038 -0.006471452281983852 -0.0048319330575246665
-0.003192413833065481 -0.0015528946086062947 -0.004674705444583705 -0.013217864947961228 -0.02176102445133875 -0.030304183954716273 -0.038847343458094104 -0.04457029472337919
-0.045585422195289854 -0.04660054966720051 -0.04761567713911117 -0.04863080461102183 -0.0472915551447437 -0.039948079816028326 -0.032604604487312935 -0.02526112915859756
-0.017917653829881912 -0.011852543252764249 -0.011283129390377226 -0.010713715527990202 -0.010144301665603178 -0.009574887803216154 -0.009648129355470613 -0.015789945084941658
-0.021931760814412705 -0.028073576543883753 -0.0342153922733548 -0.040359865093172596 -0.0474500395281752 -0.054540213963177805 -0.061630388398180413 -0.06872056283318302
-0.07581073726818563 -0.0810805141183222 -0.08616989595041587 -0.09125927778250954 -0.09634865961460322 -0.1014380414466969 -0.10556986861156925 -0.10948704328557653
-0.11340421795958379 -0.11732139263359107 -0.12123856730759833 -0.1276190707305392 -0.13493898410632826 -0.14225889748211729 -0.14957881085790634 -0.15689872423369539
-0.1521306525569746 -0.14029275123638965 -0.12845484991580514 -0.1166169485952206 -0.10477904727463608 -0.09720359550514725 -0.09328838432721717 -0.0893731731492871
-0.08545796197135704 -0.08154275079342696 -0.08189543155025776 -0.08756993521335622 -0.09324443887645448 -0.09891894253955272 -0.10459344620265097 -0.10827
