velocity_residuals/azimuthal_velocity_residuals_sycha_dbell_b0p30/azimuthal_velocity_residuals_sycha_dbell_b0p30_rescaled.npy (npy, 84424 bytes, 1 tensors)

array f8 [41, 257]
0	0xbfb94317acc4ef89	-0.09868
1	0xbfb83fbb22b41842	-0.09472245785954761
2	0xbfb76c35f6c387c4	-0.09149491571909524
3	0xbfb698b0cad2f741	-0.0882673735786428
4	0xbfb5c52b9ee266c2	-0.08503983143819041
5	0xbfb4f1a672f1d643	-0.08181228929773803
6	0xbfb39ae29848ef24	-0.07658210962193529
7	0xbfb19c0e40041dd6	-0.06878747046368203
8	0xbfaf3a73cf7e98fa	-0.06099283130542861
9	0xbfab3ccb1ef4f65c	-0.05319819214717533
10	0xbfa73f226e6b53bf	-0.04540355298892206
11	0xbfa34179bde1b121	-0.037608913830668785
12	0xbf9f34d4eefdae6b	-0.030474974715089347
13	0xbf97ff0239371470	-0.02343371843541714
14	0xbf90c92f83707a51	-0.016392462155744806
15	0xbf8326b99b53c0ac	-0.009351205876072598
16	0xbf62ec50bf1a32e0	-0.002309949596400393
17	0x3f6a2e0f1018be11	0.0031957906910731267
18	0x3f75fe7ed6c1ab59	0.005369658913063479
19	0x3f7ee5f62576f7d7	0.007543527135053871
20	0x3f83e6b6ba162214	0.009717395357044224
21	0x3f885a726170c83c	0.011891263579034576
22	0x3f8cce2e08cb6e64	0.014065131801024928
23	0x3fa12262d8316952	0.033465470209835715
24	0x3fadf211969937f9	0.05848746264801714
25	0x3fb560e02a808371	0.08350945508619902
26	0x3fbbc8b789b46ac4	0.10853144752438043
27	0x3fc118477474290c	0.13355343996256186
28	0x3fc3e813ca8e4141	0.15551993742384165
29	0x3fc513bda1b14abe	0.16466493983405955
30	0x3fc63f6778d45436	0.17380994224427732
31	0x3fc76b114ff75dae	0.18295494465449508
32	0x3fc896bb271a6725	0.1920999470647128
33	0x3fc9c264fe3d709d	0.20124494947493057
34	0x3fcbfece9b5b8a6a	0.21871359430140852
35	0x3fcedac2a26d89d8	0.24105103426980068
36	0x3fd0db5b54bfc4ab	0.2633884742381933
37	0x3fd249555848c462	0.28572591420658544
38	0x3fd3b74f5bd1c41a	0.30806335417497765
39	0x3fd4e8dd997dbba2	0.32671298970574914
40	0x3fd2f08bcbca0a5d	0.29593176747599675
41	0x3fd0f839fe165922	0.26515054524624493
42	0x3fcdffd060c54fce	0.2343693230164931
43	0x3fca0f2cc55ded58	0.20358810078674128
44	0x3fc61e8929f68ae3	0.17280687855698948
45	0x3fc34407e6ef0f74	0.1505136373144712
46	0x3fc176fcf57599b5	0.1364437292606461
47	0x3fbf53e407f847da	0.12237382120682075
48	0x3fbbb9ce25055c5e	0.10830391315299567
49	0x3fb81fb8421270e1	0.09423400509917058
50	0x3fb485a25f1f855a	0.08016409704534536
51	0x3fb3be70487abf09	0.07712461251753323
52	0x3fb3202e72319460	0.07470979965144542
53	0x3fb281ec9be869ba	0.07229498678535765
54	0x3fb1e3aac59f3f13	0.06988017391926986
55	0x3fb14568ef56146b	0.06746536105318206
56	0x3faee1c013e94f12	0.06031608813341739
57	0x3fa758f8084d8e92	0.045600653661293525
58	0x3f9fa05ff9639bfe	0.030885219189169526
59	0x3f908ecfe22c1afe	0.01616978471704566
60	0x3f57d3fcaf499fc0	0.0014543502449217843
61	0xbf8b28a09885ce50	-0.013261084227202208
62	0xbf783ac0e1224c54	-0.005915406642219418
63	0x3f793d9345dcd8ec	0.006162238392610524
64	0x3f92ad79db36ff6c	0.01823988342744036
65	0x3f9f0b8ee4f6c89e	0.030317528462270198
66	0x3fa5b4d1f75b48f7	0.04239517349710014
67	0x3fac4346fcb4a333	0.05520078501496641
68	0x3fb1ef56aee13466	0.07005826730274264
69	0x3fb5bd09df681728	0.08491574959051873
70	0x3fb98abd0feef9eb	0.09977323187829483
71	0x3fbd58704075dcb6	0.11463071416607104
72	0x3fc09311b87e5fbd	0.12948819645384715
73	0x3fc0cbd038cebbdf	0.13121989034468037
74	0x3fc04c8c380aa687	0.12733605133444234
75	0x3fbf9a906e8d2262	0.12345221232420436
76	0x3fbe9c086d04f7b6	0.11956837331396639
77	0x3fbd9d806b7ccd08	0.11568453430372838
78	0x3fbc7620ef8a1f53	0.1111775002301532
79	0x3fba51791a367703	0.10280568017921259
80	0x3fb82cd144e2ceb8	0.09443386012827204
81	0x3fb608296f8f266e	0.08606204007733151
82	0x3fb3e3819a3b7e24	0.07769022002639098
83	0x3fb1bed9c4e7d5ce	0.06931839997545028
84	0x3fb346d2fddb443e	0.07529944131535246
85	0x3fb77f6759b17e24	0.09178777637270535
86	0x3fbbb7fbb587b80a	0.10827611143005825
87	0x3fbff090115df1f0	0.12476444648741114
88	0x3fc21492369a15eb	0.14125278154476403
89	0x3fc419787eaa9a60	0.1570273035515184
90	0x3fc070c5f22ff4f4	0.12844156575730603
91	0x3fb99026cb6a9f12	0.0998558279630937
92	0x3fb23ec1b275543a	0.07127009016888133
93	0x3fa5dab9330012c4	0.04268435237466897
94	0x3f8cdfbc0455f330	0.01409861458045611
95	0x3f91404cc330bbcf	0.016846846974825355
96	0x3fad4d38d6c8f39b	0.05722978231322103
97	0x3fb8fd25a5fcc4a7	0.0976127176516167
98	0x3fc1a9d7704a87c1	0.1379956529900124
99	0x3fc6d51c0d96ad48	0.1783785883284088
100	0x3fcc0060aae2d2b5	0.21876152366680449
101	0x3fcc44fd0793205d	0.22085535879000676
102	0x3fcbf2f90714c2f8	0.21835244031674228
103	0x3fcba0f506966592	0.21584952184347778
104	0x3fcb4ef10618082c	0.21334660337021327
105	0x3fcafced0599aac7	0.2108436848969488
106	0x3fcadb751295dd96	0.2098223057507595
107	0x3fcb1bf94d914517	0.21179119384263664
108	0x3fcb5c7d888cac97	0.21376008193451376
109	0x3fcb9d01c3881417	0.21572897002639088
110	0x3fcbdd85fe837b98	0.21769785811826803
111	0x3fcc1e0a397ee319	0.21966674621014518
112	0x3fcc444baf44f963	0.22083421762540487
113	0x3fcc62b2af73d0f9	0.22176202361118394
114	0x3fcc8119afa2a88f	0.222689829596963
115	0x3fcc9f80afd18025	0.22361763558274209
116	0x3fccbde7b00057bb	0.22454544156852116
117	0x3fcce2c00960dc68	0.2256698652069844
118	0x3fcd2015c49b9d7d	0.22754165744775526
119	0x3fcd5d6b7fd65e91	0.2294134496885261
120	0x3fcd9ac13b111fa6	0.23128524192929695
121	0x3fcdd816f64be0bc	0.23315703417006783
122	0x3fce156cb186a1d1	0.2350288264108387
123	0x3fcdd05b4e0bf81c	0.23292104063870134
124	0x3fcd4411e289282d	0.2286398273593603
125	0x3fccb7c87706583e	0.22435861408001928
126	0x3fcc2b7f0b83884c	0.22007740080067817
127	0x3fcb9f35a000b85d	0.21579618752133714
128	0x3fcb1f0b6a91169c	0.21188490584807063
129	0x3fcb20ee153ea8f1	0.21194244420377786
130	0x3fcb22d0bfec3b45	0.21199998255948507
131	0x3fcb24b36a99cd9a	0.2120575209151923
132	0x3fcb269615475fee	0.21211505927089952
133	0x3fcb2878bff4f243	0.21217259762660676
134	0x3fcb57a0a7254f35	0.2136116806165035
135	0x3fcbaff28af16dd8	0.21630698952036087
136	0x3fcc08446ebd8c7d	0.21900229842421828
137	0x3fcc60965289ab20	0.22169760732807564
138	0x3fccb8e83655c9c3	0.224392916231933
139	0x3fcd113a1a21e866	0.22708822513579036
140	0x3fcd57591802316d	0.22922815010350509
141	0x3fcd9cc14317cc3c	0.23134628082297748
142	0x3fcde2296e2d670c	0.2334644115424499
143	0x3fce2791994301da	0.23558254226192227
144	0x3fce6cf9c4589ca8	0.23770067298139463
145	0x3fcea51cfcf17fba	0.23941385603666082
146	0x3fcec9684f742c82	0.240521467967799
147	0x3fceedb3a1f6d94b	0.2416290798989372
148	0x3fcf11fef4798613	0.24273669183007537
149	0x3fcf364a46fc32dc	0.24384430376121358
150	0x3fcf5a95997edfa4	0.24495191569235175
151	0x3fcf1c55224dc6d9	0.24305214095107067
152	0x3fcecb3361d0c60c	0.24057619358204396
153	0x3fce7a11a153c53d	0.2381002462130172
154	0x3fce28efe0d6c470	0.2356242988439905
155	0x3fcdd7ce2059c3a3	0.2331483514749638
156	0x3fcd7b664b3a1a4a	0.2303283564871939
157	0x3fcd01ac1fd3e2cd	0.22661353639684592
158	0x3fcc87f1f46dab4d	0.22289871630649785
159	0x3fcc0e37c90773d0	0.21918389621614986
160	0x3fcb947d9da13c53	0.21546907612580188
161	0x3fcb1ac3723b04d6	0.2117542560354539
162	0x3fc9608ab799bcbf	0.19825872387762009
163	0x3fc72752ce8a2cbf	0.18088755688618183
164	0x3fc4ee1ae57a9cbf	0.16351638989474357
165	0x3fc2b4e2fc6b0cc0	0.14614522290330534
166	0x3fc07bab135b7ca9	0.12877405591186644
167	0x3fbd4b2646a01dbf	0.11442794059995885
168	0x3fbdda52c77cb5bf	0.1166126000432177
169	0x3fbe697f48594dc0	0.11879725948647657
170	0x3fbef8abc935e5c1	0.12098191892973544
171	0x3fbf87d84a127dc2	0.1231665783729943
172	0x3fc00b8265778ae1	0.12535123781625315
173	0x3fbf4426c6abf4c4	0.12213365888961208
174	0x3fbd7e79194649e5	0.11521107546858607
175	0x3fbbb8cb6be09f06	0.10828849204756005
176	0x3fb9f31dbe7af426	0.10136590862653402
177	0x3fb82d7011154934	0.09444332520550774
178	0x3fb670f0d61e1bbd	0.08766083934288722
179	0x3fb5cd253830ca28	0.08516152021255918
180	0x3fb529599a437893	0.08266220108223114
181	0x3fb4858dfc5626fe	0.0801628819519031
182	0x3fb3e1c25e68d56a	0.07766356282157508
183	0x3fb33df6c07b83d5	0.07516424369124704
184	0x3fb2b5347760afa1	0.07307746805662287
185	0x3fb24aea2167963a	0.07145560565512535
186	0x3fb1e09fcb6e7cd2	0.06983374325362782
187	0x3fb1765575756366	0.06821188085213023
188	0x3fb10c0b1f7c49ff	0.06659001845063271
189	0x3fb0a1c0c9833097	0.06496815604913518
190	0x3faf274785bafb96	0.06084655291987599
191	0x3facea1d07a4b012	0.056473643477460325
192	0x3faaacf2898e648d	0.05210073403504465
193	0x3fa86fc80b781909	0.04772782459262898
194	0x3fa6329d8d61cd84	0.04335491515021331
195	0x3fa3e593e21158b8	0.038860913606798275
196	0x3fa17ab08902779b	0.03413917229157378
197	0x3f9e1f9a5fe72cfc	0.029417430976349287
198	0x3f9949d3adc96a90	0.02469568966112462
199	0x3f94740cfbaba855	0.019973948345900123
200	0x3f8f3c8c931bcc34	0.015252207030675625
201	0xbf959764bab00d7d	-0.021085332769883437
202	0xbfb0e8a315bd9572	-0.06604975968146734
203	0xbfbc6b6cfccf2786	-0.11101418659305126
204	0xbfc3f71b71f05ccd	-0.15597861350463518
205	0xbfc9b880657925d6	-0.20094304041621908
206	0xbfcdae3de6775f95	-0.23187993767964757
207	0xbfcb6cb73e0d397c	-0.21425524263254292
208	0xbfc92b3095a3134b	-0.1966305475854376
209	0xbfc6e9a9ed38ed31	-0.17900585253833293
210	0xbfc4a82344cec718	-0.16138115749122828
211	0xbfc2669c9c64a0fe	-0.1437564624441236
212	0xbfbe93bf89c2fe27	-0.11944195855448268
213	0xbfb77b07fed3e735	-0.09172105761890921
214	0xbfb0625073e4d043	-0.06400015668333574
215	0xbfa29331d1eb72a4	-0.03627925574776228
216	0xbf81870af0351300	-0.008558354812188806
217	0x3f8bb6c3c0d7df57	0.013532189676865576
218	0xbf8d91fd1fe5ece6	-0.014438607727007068
219	0xbfa5b6af8028eedb	-0.04240940513088073
220	0xbfb2046fdc2c30f5	-0.07038020253475337
221	0xbfb92d87f843ea7d	-0.09835099993862602
222	0xbfc02b500a2dd202	-0.12632179734249865
223	0xbfc200fe529dda2a	-0.14065531763090294
224	0xbfc2595f5326056d	-0.14335242805467932
225	0xbfc2b1c053ae30b0	-0.1460495384784557
226	0xbfc30a2154365bf3	-0.14874664890223208
227	0xbfc3628254be8736	-0.15144375932600845
228	0xbfc3bae35546b279	-0.15414086974978483
229	0xbfc39b3a8e5be282	-0.1531747050392092
230	0xbfc378e0f8d1a089	-0.15212642812116808
231	0xbfc3568763475e92	-0.151078151203127
232	0xbfc3342dcdbd1c9b	-0.15002987428508593
233	0xbfc311d43832daa3	-0.14898159736704483
234	0xbfc2db79ccaca2c2	-0.1473228692423359
235	0xbfc2891b5314b1e8	-0.1448091655414736
236	0xbfc236bcd97cc10e	-0.14229546184061131
237	0xbfc1e45e5fe4d033	-0.139781758139749
238	0xbfc191ffe64cdf59	-0.1372680544388867
239	0xbfc13fa16cb4ee7f	-0.13475435073802441
240	0xbfc10db4a399df6b	-0.13323076237042683
241	0xbfc0e147ce00177d	-0.13187501486407519
242	0xbfc0b4daf8664f91	-0.1305192673577236
243	0xbfc0886e22cc87a5	-0.129163519851372
244	0xbfc05c014d32bfb9	-0.12780777234502042
245	0xbfc02d5072c94732	-0.12638288121029856
246	0xbfbff2576daf06a6	-0.12479158809494581
247	0xbfbf8a0df5cb7ee9	-0.12320029497959308
248	0xbfbf21c47de7f72c	-0.12160900186424034
249	0xbfbeb97b06046f6f	-0.1200177087488876
250	0xbfbe51318e20e7b2	-0.11842641563353487
251	0xbfbd8e9731ef50b5	-0.11545700997459359
252	0xbfbcaaed30908b3f	-0.1119831317487696
253	0xbfbbc7432f31c5ca	-0.10850925352294563
254	0xbfbae3992dd30054	-0.10503537529712165
255	0xbfb9ffef2c743adf	-0.10156149707129768
