velocity_residuals/azimuthal_velocity_residuals_mwc758/azimuthal_velocity_residuals_mwc758_nb1_gpmodel.pt (torch, 74357 bytes, 8 tensors)

polar_kernel.base_kernel.raw_lengthscale f4 [1, 2]
00000000: 7db9 0540 3a8d 953f
2.0894463 1.1683724

cartesian_kernel.base_kernel.raw_lengthscale f4 [1, 2]
00000000: 0000 0000 0000 0000
0.0 0.0

sum_kernel.kernels.0.base_kernel.raw_lengthscale f4 [1, 2]
00000000: 7db9 0540 3a8d 953f
2.0894463 1.1683724

sum_kernel.kernels.1.base_kernel.raw_lengthscale f4 [1, 2]
00000000: 0000 0000 0000 0000
0.0 0.0

covar_module.kernels.0.base_kernel.raw_lengthscale f4 [1, 2]
00000000: 7db9 0540 3a8d 953f
2.0894463 1.1683724

covar_module.kernels.1.base_kernel.raw_lengthscale f4 [1, 2]
00000000: 0000 0000 0000 0000
0.0 0.0

train_x f4 [3000, 4]
00000000: 9a99 d940 9e5a 3940 2c14 d3c0 6d7d d33f
00000010: 6666 3641 265f 0d40 a54f d9c0 4b81 1241
00000020: 3333 3341 67f2 03bf 6aeb 1b41 9ba7 b0c0
00000030: 9a99 0941 a5a7 1340 22d0 b8c0 e5e8 cb40
00000040: cdcc 1c41 23f0 19c0 be5c e8c0 d499 d2c0
00000050: 9a99 1941 d8a0 d53e 316c 0c41 f3fa 7840
00000060: 0000 0041 5e36 3640 0bfa f4c0 31a0 1440
00000070: 6666 3641 6583 103f ee19 1a41 c92a c340
00000080: 0000 1041 d153 7bbf 1501 a040 9776 efc0
00000090: 3333 d340 557a 68bf d9ef 8140 af7f a6c0
000000a0: 3333 2341 c7a8 08c0 8c9f aec0 4ee1 09c1
000000b0: 9a99 f940 db0f c93d ea65 f840 7bb8 433f
000000c0: 6666 0641 6314 9dbf ab1c 3540 4916 fdc0
000000d0: cdcc 1c41 60a5 29c0 0649 0ac1 7cd4 93c0
000000e0: 9a99 1941 db0f 49bf 2439 d940 2439 d9c0
000000f0: cdcc ec40 bb7d 4740 8bba ecc0 aff6 393e
00000100: cdcc ec40 1a34 ccbf aff6 39be 8bba ecc0
00000110: 9a99 1941 8515 1240 9aa7 c8c0 549d e840
00000120: 3333 1341 265f 0d40 b65f afc0 dc76 ec40
00000130: 3333 0341 67f2 03c0 9663 77c0 886a e7c0
00000140: 6666 3641 a238 2040 4b81 12c1 a54f d940
00000150: 6666 3641 7c59 44c0 e1e7 35c1 dab0 56bf
00000160: 0000 3041 06cd 0bc0 3aaf cac0 1ae5 0fc1
00000170: 9a99 1941 a238 a03f dfb9 4040 f8d8 1141
00000180: 6666 0641 949e ebbf 8162 0fc0 1188 01c1
00000190: cdcc ec40 db0f 493e fd3f e840 20ca b83f
000001a0: 9a99 f940 67f2 03c0 3e52 6bc0 a720 dcc0
000001b0: 3333 f340 e4cb 96bf 2123 3a40 00b0 e0c0
000001c0: cdcc 2c41 db0f c9bd caf7 2b41 b87f 87bf
000001d0: 3333 f340 1a34 cc3f 5afd 3ebe 7320 f340
000001e0: 0000 1041 d8a0 d53e 6ea5 0341 436b 6940
000001f0: 3333 d340 4382 1bc0 2aec 9fc0 3af3 89c0
00000200: 6666 1641 6314 9dbf 46ac 4a40 b59b 0dc1
00000210: cdcc 0c41 557a 683f cd3f ad40 94ff dd40
00000220: 3333 f340 2181 2640 7f99 d0c0 400f 7a40
00000230: 0000 e040 d8a0 d53e 72c8 cc40 518c 3540
00000240: 3333 0341 e25c 23c0 792d dac0 19c8 91c0
00000250: 3333 2341 dfed 2fbe 1dcc 2041 3535 dfbf
00000260: 6666 e640 23f0 993f f2d6 2540 28f6 d640
00000270: 3333 1341 265f 0dc0 b65f afc0 dc76 ecc0
00000280: 3333 2341 265f 8dbf cec0 9240 32c6 11c1
00000290: 6666 3641 d153 fb3e c9dc 2041 2df7 ab40
000002a0: cdcc ec40 a716 0740 a47a 73c0 321c cb40
000002b0: 9a99 1941 5e36 b6bf 6b4d b43f 01f0 17c1
000002c0: 0000 3041 5e36 36c0 e76b 28c1 445c 4cc0
000002d0: 3333 1341 bb7d 4740 da27 13c1 b032 673e
000002e0: 3333 f340 d8a0 55bf b952 a340 0633 b4c0
000002f0: cdcc 1c41 db0f 49bd 739c 1c41 b433 f6be
00000300: 9a99 0941 db0f 493e c0f4 0641 64c1 d63f
00000310: 3333 2341 2181 a63f 2f1c 2e40 cb49 1d41
00000320: 6666 3641 dd7e bc3f d006 8f3f 8e85 3541
00000330: 6666 1641 a716 07c0 61a4 9ac0 9c00 01c1
00000340: 6666 2641 d153 7b3e c869 2141 45ba 2140
00000350: 3333 1341 18c5 d83f 9c26 90bf ce17 1241
00000360: 3333 1341 60a5 293f d516 e840 ca1f b540
00000370: 9a99 0941 e63a 0ac0 97e4 98c0 08d2 e4c0
00000380: 3333 2341 6583 10bf 4ee1 0941 8c9f aec0
00000390: 0000 e040 dd7e bcbe 8afd d040 a43b 21c0
000003a0: 6666 2641 dd7e bcbe 0040 1b41 d08b 6fc0
000003b0: cdcc 0c41 6583 103f 28e9 ed40 c4a7 9640
000003c0: 3333 0341 e4cb 16bf 792d da40 19c8 91c0
000003d0: 0000 e040 d631 e2bf 0acd aebf 27b2 dbc0
000003e0: 9a99 d940 3c35 41c0 abf6 d7c0 ae17 55bf
000003f0: 0000 0041 d153 fb3f 15ef 43c0 5e83 ec40
6.8 2.8961558 -6.5962124 1.6522652 11.4 2.2089324 -6.790972 9.156566
11.2 -0.5154175 9.744974 -5.5204597 8.6 2.3071072 -5.775407 6.3721795
9.8 -2.4052818 -7.261321 -6.581278 9.6 0.41724277 8.776414 3.8903167
8.0 2.8470683 -7.655523 2.3222773 11.4 0.5645049 9.6313305 6.098973
9.0 -0.9817477 5.000132 -7.4832263 6.6 -0.90811664 4.0605283 -5.2030864
10.2 -2.1353014 -5.456976 -8.617506 7.8 0.09817477 7.7624407 0.7645337
8.4 -1.2271847 2.8298748 -7.9089704 9.8 -2.6507187 -8.642828 -4.619688
9.6 -0.7853982 6.788225 -6.788225 7.4 3.117049 -7.3977714 0.18160509
7.4 -1.59534 -0.18160509 -7.3977714 9.6 2.2825634 -6.270459 7.269205
9.2 2.2089324 -5.4804335 7.389509 8.2 -2.06167 -3.8654532 -7.2317543
11.4 2.5034566 -9.156566 6.790972 11.4 -3.0679617 -11.369111 -0.83863604
11.0 -2.1843886 -6.33389 -8.993433 9.6 1.2517283 3.0113447 9.115471
8.4 -1.8407769 -2.2403872 -8.095719 7.4 0.19634955 7.257811 1.4436684
7.8 -2.06167 -3.6768947 -6.878986 7.6 -1.1780972 2.908394 -7.0214844
10.8 -0.09817477 10.747995 -1.0585852 7.6 1.59534 -0.18651333 7.597711
9.0 0.41724277 8.227888 3.6471717 6.6 -2.4298255 -4.9975786 -4.3109407
9.4 -1.2271847 3.1667647 -8.850514 8.8 0.90811664 5.414038 6.9374485
7.6 2.6016314 -6.5187373 3.9071808 7.0 0.41724277 6.3994684 2.8366892
8.2 -2.552544 -6.818051 -4.555676 10.2 -0.17180584 10.049832 -1.7438112
7.2 1.2026409 2.5912442 6.7175484 9.2 -2.2089324 -5.4804335 -7.389509
10.2 -1.1044662 4.5860357 -9.110888 11.4 0.49087384 10.053903 5.373923
7.4 2.1107576 -3.8043604 6.347192 9.6 -1.4235342 1.4086126 -9.496095
11.0 -2.8470683 -10.526343 -3.1931314 9.2 3.117049 -9.197229 0.2257793
7.6 -0.83448553 5.103848 -5.6312284 9.8 -0.049087387 9.788196 -0.4808632
8.6 0.19634955 8.434753 1.6777768 10.2 1.3008157 2.7204702 9.830516
11.4 1.4726216 1.1173954 11.345106 9.4 -2.1107576 -4.832566 -8.062649
10.4 0.24543692 10.0883255 2.526994 9.2 1.6935148 -1.1261783 9.130812
9.2 0.6626797 7.252787 5.6601305 8.6 -2.1598449 -4.777904 -7.1506386
10.2 -0.5645049 8.617506 -5.456976 7.0 -0.3681554 6.5309496 -2.5192652
10.4 -0.3681554 9.703125 -3.7429085 8.8 0.5645049 7.4347115 4.707979
8.2 -0.5890486 6.818051 -4.555676 7.0 -1.7671459 -1.3656323 -6.865497
6.8 -3.0188742 -6.748861 -0.8323926 8.0 1.9634954 -3.0614674 7.391036

train_y f4 [3000]
00000000: ec1c 1abb 243b 5f3c 668c cabc 3287 17bd
00000010: 35d6 813c 9901 f8bc c5f3 c43b ae61 18be
00000020: e533 8a3c 0802 ae3b 2c8d 1bbe 9ce3 6a3c
00000030: 841c e73c c23e 943d 6487 803d f4b1 24bd
00000040: 03ba 79bd 1928 3fbd 134b b3bd 5423 423c
00000050: 605d a93d d21f c33d 427f 5fbd 96ee cf39
00000060: 6339 683c eff7 3c3b 392f ac3c d4f2 00bd
00000070: 0da3 823c ef1c c83c 253b 6fbb ba05 f43b
00000080: 8caa f33c 72e2 b1bc d1bc 78bc 4376 363c
00000090: 9b16 553d 2e02 703c 135c de3b 1500 dabc
000000a0: 3c4a efbc dbfd 04be b23c 213d 5a42 3ebd
000000b0: da55 ea3c 7ef4 7dbd 24f3 163b 419f dbba
000000c0: def5 a4b8 b211 1e3d 2e11 523d 5e6f 85bd
000000d0: 575d e2bc df84 f939 5d10 5abd f643 dc3c
000000e0: a1ab 16bc 273a 003d fde7 00bc eff4 dbbc
000000f0: 5033 0fbd 3c8b 4a3c af7d 06bd 31c7 163d
00000100: 1273 03bd d380 423b d39b 62ba 5f9d acbc
00000110: 0d5e 53bc aa2d e83c a678 9b3c 7ee7 7e3c
00000120: 9e5c e3bc e6b3 f4bc 062d 8d3d 153b af3c
00000130: 7dae 803d 5178 57bd 5198 c8bc d1a3 b93b
00000140: 028d 1c3c 0786 5b3c 3443 093d 644e 97bb
00000150: 676d e93b d6f1 6bbb b924 80bc 56a0 b03c
00000160: 9d3b 28bd e7ab 83bc d690 38bd e1b0 b73c
00000170: ede1 8a3d 72c9 53bc f4cf 08be 6a18 643a
00000180: b916 d83c 44b3 34bd a587 e23c 8054 b33c
00000190: c66e 28ba ad19 0dbe 7daa 473d 3830 74bb
000001a0: c45a aa3b ee35 c43c f85c c9bc 1561 e43c
000001b0: b68d 9dbd a6e7 723b 1220 6a3d 6e50 6d3a
000001c0: 8c99 e8bb c119 aabb d5b5 333d 9965 90bb
000001d0: 3c12 fcbb 4b59 37bc 9c12 19be 4283 0cbd
000001e0: 0d18 603d 1a8e 0abc a28a 12bd 0c91 113d
000001f0: be89 e6bc 42dd 413d 9e39 12bd 3d22 e5bc
00000200: 1217 8f3c 01e6 393d b59e 26bd 6e62 d93c
00000210: 7bf0 20bd 330e ec3c 0be8 203d c7ca 843d
00000220: a11b 9fbc 7fc5 56bc ca9c 1fbd 8183 783d
00000230: 9ede 713d 7d02 e8bc f439 dabc b083 f63b
00000240: c115 f9bd 3992 923c b63e ca3c e14f b5bd
00000250: f476 263d ed1b 3a3c e4b5 0f3d 04ec f5bc
00000260: 1c8a 513b 6277 afbb 027e 883d 94fb 03b9
00000270: db1f 503b c2b4 debc 7e82 793c c70c 2a3d
00000280: be72 4cbd f2cd a4bb ac3b 3bbc 37d6 ecbc
00000290: 4de3 e13c d5fd 8f3d b7b5 15bd dcd7 0e3d
000002a0: 2344 e3bc 276e 3dbc 0721 8dbc 3b3c 9fbb
000002b0: b28b 013b 12f5 4abd 82ba 8d3c 7285 60bc
000002c0: 9cd7 43bd 66f6 03bc 55b4 f13c 9903 e93a
000002d0: 354a 3e3b a0a9 24bc 0d69 6c3b a9db a73d
000002e0: 13a7 95bb 59e4 2b3d ce46 453d 20d1 18bd
000002f0: 1f66 e13c 12d4 c2bc 1e30 d13b e34e 4d3d
00000300: 6427 9bbc d723 063d 9d74 133c 4e02 b4b9
00000310: c8dd f0bc 1ec2 ee3c 4e9c cfbd 532c b23c
00000320: c5f9 f43c b546 27bd da6f 87bc 6b42 813d
00000330: c4ba 7d3c 7d19 2cbd 58f9 b83c 15ca ddbb
00000340: 8b8c 5a3c c6d4 92bc 7bec b1bd 275c c63c
00000350: f598 4f3d 16f7 943d cceb f0bc a1ab 6e3d
00000360: 92e7 c23c c73b 8a3d f8c0 8cbc ebb9 e33c
00000370: fb8a 9abc b8bb c93c a819 ed3c 4138 4cbc
00000380: eb86 0ebb 19e1 51bd 6e12 203d 908b af3c
00000390: 93e9 26ba 5862 bf3c 8d9a 473d be0a edba
000003a0: d483 20bd 3cef cd3c 3382 5dbc bfaa 6e3c
000003b0: 8fff 473d abcf bfbc a2c4 2e3c 8673 debb
000003c0: 3268 813c 8547 99bc b6f5 d5bb 74bc 823b
000003d0: 5c9d 0e3d b193 4dbc 0c92 c43b ff67 0c3d
000003e0: 7cbb 0bbd 4bc8 44bd 83cf 583b b0ff 883c
000003f0: 6470 633b 972b 453b c91e 2cbd 8d58 a63c
-0.0023515774 0.01362494 -0.02472515 -0.036994167 0.015849212 -0.0302742 0.006010505 -0.14881012
0.016870448 0.0053103007 -0.15190572 0.014336493 0.02821184 0.072385326 0.06275824 -0.04020877
-0.06096841 -0.0466691 -0.08754554 0.011849243 0.08269763 0.095275536 -0.054564722 0.00039659877
0.014173838 0.0028834303 0.021018611 -0.03148158 0.01594689 0.02442786 -0.0036503759 0.0074469717
0.029744409 -0.021714423 -0.015181736 0.011136594 0.05202351 0.014648957 0.0067858784 -0.026611367
-0.029210202 -0.12987463 0.039364524 -0.046449997 0.02860539 -0.062000744 0.0023033107 -0.0016755835
-7.865926e-05 0.038591094 0.051285915 -0.06515382 -0.027632399 0.00047591978 -0.05323826 0.026887875
-0.009196193 0.03130546 -0.00786781 -0.026850192 -0.034961045 0.012362298 -0.032834705 0.036811057
-0.03209216 0.0029678836 -0.00086444354 -0.021071134 -0.012900841 0.028342087 0.018978428 0.015558122
-0.027754124 -0.029870939 0.06893353 0.021390477 0.06283281 -0.052604977 -0.024486693 0.0056652804
0.009555103 0.013398654 0.033511356 -0.004617499 0.0071236375 -0.00360023 -0.01564251 0.02156083
-0.041072477 -0.01607318 -0.04506 0.02242321 0.06781373 -0.012926446 -0.13360578 0.0008701148
0.026378023 -0.044116274 0.027652571 0.021890879 -0.0006425198 -0.13779326 0.048746575 -0.0037260186
0.0051988084 0.023951497 -0.024580464 0.027878324 -0.07693045 0.0037064343 0.05715949 0.00090528175
-0.0070983823 -0.0051910584 0.04387458 -0.0044066426 -0.0076926034 -0.011190723 -0.14948505 -0.034304865
0.054710437 -0.008456731 -0.03577674 0.035538718 -0.028141852 0.04733015 -0.03569948 -0.027970428
0.017467055 0.045385364 -0.0406787 0.026536193 -0.03929184 0.028815364 0.039283793 0.06483989
-0.019422354 -0.01310861 -0.038967885 0.060672287 0.059050195 -0.028321499 -0.026638962 0.0075230226
-0.12162352 0.01789199 0.024688106 -0.08853126 0.040640786 0.011359197 0.035085574 -0.030019768
0.0031973189 -0.0053548077 0.06664659 -0.00012586854 0.0031757269 -0.027185801 0.015228866 0.04151609
-0.049914114 -0.0050294334 -0.011427801 -0.02891074 0.027574206 0.070308365 -0.03655025 0.03487383
-0.027742451 -0.011561907 -0.017227663 -0.004859475 0.0019767103 -0.049550124 0.017300848 -0.013703691
-0.047813043 -0.008054351 0.029504934 0.0017777561 0.002903593 -0.010050207 0.0036073357 0.08196194
-0.004567036 0.041965816 0.048163228 -0.037308812 0.027514515 -0.023782764 0.00638391 0.05012406
-0.018939681 0.032749023 0.008999971 -0.00034333993 -0.029402629 0.029145297 -0.10137235 0.021749651
0.029904256 -0.040838916 -0.016532827 0.06311496 0.015486423 -0.042016495 0.022579834 -0.006768475
0.013339172 -0.017923724 -0.08687683 0.024213864 0.05068298 0.072736904 -0.029409312 0.058269147
0.023792062 0.06749683 -0.017181858 0.027798614 -0.0188651 0.024625644 0.028942898 -0.012464584
-0.0021747898 -0.05124006 0.039080076 0.021428853 -0.0006367203 0.023362324 0.048731375 -0.0018084866
-0.03918822 0.02513849 -0.013519811 0.014567076 0.048827704 -0.023414453 0.010666998 -0.006788674
0.015796755 -0.018710861 -0.006529535 0.0039897505 0.03481804 -0.012547419 0.0059988555 0.034278866
-0.034114346 -0.048042577 0.003308267 0.016723484 0.0034704441 0.0030085796 -0.042021547 0.020305896
